models/gdn_model.pth (torch_old, 116783 bytes, 10 tensors)

feature_means f4 [33]
000000 00 00 00 00 00 00 00 00 00 00 00 00 00 00 00 00
       0.0 0.0 0.0 0.0
000010 00 00 00 00 00 00 00 00 00 00 00 00 00 00 00 00
       0.0 0.0 0.0 0.0
000020 00 00 00 00 00 00 00 00 00 00 00 00 00 00 00 00
       0.0 0.0 0.0 0.0
000030 00 00 00 00 00 00 00 00 00 00 00 00 00 00 00 00
       0.0 0.0 0.0 0.0
000040 00 00 00 00 00 00 00 00 00 00 00 00 00 00 00 00
       0.0 0.0 0.0 0.0
000050 00 00 00 00 00 00 00 00 00 00 00 00 00 00 00 00
       0.0 0.0 0.0 0.0
000060 00 00 00 00 00 00 00 00 00 00 00 00 00 00 00 00
       0.0 0.0 0.0 0.0
000070 00 00 00 00 00 00 00 00 00 00 00 00 00 00 00 00
       0.0 0.0 0.0 0.0
000080 00 00 00 00
       0.0

feature_stds f4 [33]
000000 00 00 80 3f 00 00 80 3f 00 00 80 3f 00 00 80 3f
       1.0 1.0 1.0 1.0
000010 00 00 80 3f 00 00 80 3f 00 00 80 3f 00 00 80 3f
       1.0 1.0 1.0 1.0
000020 00 00 80 3f 00 00 80 3f 00 00 80 3f 00 00 80 3f
       1.0 1.0 1.0 1.0
000030 00 00 80 3f 00 00 80 3f 00 00 80 3f 00 00 80 3f
       1.0 1.0 1.0 1.0
000040 00 00 80 3f 00 00 80 3f 00 00 80 3f 00 00 80 3f
       1.0 1.0 1.0 1.0
000050 00 00 80 3f 00 00 80 3f 00 00 80 3f 00 00 80 3f
       1.0 1.0 1.0 1.0
000060 00 00 80 3f 00 00 80 3f 00 00 80 3f 00 00 80 3f
       1.0 1.0 1.0 1.0
000070 00 00 80 3f 00 00 80 3f 00 00 80 3f 00 00 80 3f
       1.0 1.0 1.0 1.0
000080 00 00 80 3f
       1.0

fc1.weight f4 [64, 33]
000000 80 2b b6 ba ac ea b1 3c fc a6 b0 3d 5f c7 85 3d
       -0.0013898462 0.021718346 0.086256 0.06532168
000010 6c 90 fc bd 90 a2 78 bd 7b 76 91 3c 58 02 9c 3c
       -0.12332234 -0.060701907 0.017756691 0.019044086
000020 c0 82 0a 3d fe 8c 17 be 43 1e 1c be 01 93 a6 bd
       0.0338161 -0.14799878 -0.15245919 -0.081335075
000030 4e 74 b7 bd 2c 3c d1 bd 24 aa 04 bd ed d6 1e be
       -0.0895773 -0.10216555 -0.03238882 -0.15511675
000040 58 87 e1 3c cd 38 e4 3d b0 01 a1 3c d4 7d f8 3d
       0.027530357 0.111436464 0.019654125 0.12133375
000050 fc 2a bf 3d 9e 0d b0 3d 16 ab 30 3e b2 8d 05 be
       0.093343705 0.08596347 0.17252764 -0.13042334
000060 45 ad f2 bd 5e bc d8 bd 40 71 8c bd 8d 04 a5 bd
       -0.11849455 -0.10582803 -0.06857538 -0.080575086
000070 5b 4d 7f 3d eb e5 e5 3d 92 95 64 3e 8d c5 67 3d
       0.06232963 0.11225494 0.22322682 0.056584883
000080 6c 91 46 3e 18 ab c8 3d 5c df 07 bd ec d7 07 3e
       0.19391412 0.097982585 -0.033171996 0.13265961
000090 41 ac 31 3e fe 4b e2 3c d4 78 05 bd 11 40 39 be
       0.17350866 0.027624127 -0.032585934 -0.18090846
0000a0 b0 8e dc bd 84 38 ba 3d 7a 7b ca bd 54 23 12 3d
       -0.10769403 0.09092811 -0.098868325 0.035678223
0000b0 90 a3 aa 3d d4 8d 02 be 7a e3 7c 3d d8 f0 2c 3d
       0.08331978 -0.12749416 0.061740376 0.042221874
0000c0 88 95 97 3c 3c e9 f3 bd 7e e3 f6 bd 10 2a fe 3c
       0.01850392 -0.1190972 -0.120551094 0.031025916
0000d0 ec 43 7a 3d 00 fd 97 3b 16 ac 17 3e ad d0 24 be
       0.06109993 0.0046383142 0.1481174 -0.16095228
0000e0 00 75 d4 ba 80 24 d3 3c f2 68 4c 3c 35 5e ca 3d
       -0.0016209185 0.02577424 0.012476193 0.0988125
0000f0 1b 6f 8a 3d f9 84 f8 bd 0e ed 49 3d a2 d6 c7 bc
       0.06759473 -0.121347375 0.04929834 -0.024394337
000100 c0 7a 08 3e 61 82 56 bc ec ca dc 3d f9 58 19 3e
       0.13328075 -0.013092608 0.10780892 0.14975347
000110 28 d3 ec bd 14 df 0c 3e f5 b0 e2 3d 7c a8 a0 3d
       -0.11563712 0.13756973 0.11068908 0.07844636
000120 4f 28 84 3d 18 4e db 3c c2 83 6b bd b2 ea d7 bd
       0.06453001 0.026770636 -0.0574987 -0.105428115
000130 d0 74 e9 bd b1 14 eb 3d 02 33 19 3e 30 44 29 3e
       -0.11399233 0.11478556 0.14960864 0.16529918
000140 46 b6 30 3e 90 c5 96 bd f0 79 11 3e 34 69 49 3d
       0.17257032 -0.07361901 0.14206672 0.049172595
000150 a8 41 2e 3e b5 65 ed 3d 08 71 e6 3d 27 97 52 bc
       0.17017233 0.11591665 0.11252028 -0.01285342
000160 2c 12 14 be 40 b1 ed bc d0 7d 44 bd b4 b3 bf 3d
       -0.14460057 -0.029015183 -0.047971547 0.093604475
000170 d8 70 fe 3d 43 79 a4 3d 22 2e ee 3b ca 3a 07 3e
       0.12423867 0.08030941 0.007268683 0.1320602
000180 28 5d 04 3e e6 d7 ac bd 30 bc 0e be 7f 6e 1c be
       0.12926161 -0.08439617 -0.13938975 -0.15276526
000190 e4 1f bf 3c 09 52 9f bd 57 fa eb 3d e1 54 c5 bc
       0.023330636 -0.07779319 0.11522358 -0.024088325
0001a0 8c 72 34 bd eb 21 5b 3d 3c d0 ca 3d 88 9b b8 3d
       -0.044054553 0.053499144 0.09902999 0.0901404
0001b0 7c 49 d9 3d a8 fd ef 3c 11 37 2c be 10 50 18 3e
       0.10609719 0.029295757 -0.16817881 0.14874291
0001c0 d8 26 8b bd fd 98 2f be 12 e9 17 be 57 1c df bd
       -0.06794518 -0.17148204 -0.14835003 -0.10894077
0001d0 54 91 1f 3e d8 b8 17 3e 62 4e de 3d 08 ab 0b 3e
       0.15582782 0.14816606 0.10854794 0.13639462
0001e0 e9 0e 21 3d f0 5f 4a 3c a8 84 9a bd 34 34 ac 3d
       0.03932086 0.012351975 -0.075448334 0.084083945
0001f0 93 b3 f6 bd 39 76 a8 3d 5d da 2f 3e 1c 78 5d 3d
       -0.1204597 0.08225674 0.17173143 0.054069623
000200 8e 6d 8b 3d ad 4c ae 3d 5b 7c 0f be 3a 63 df 3d
       0.06808005 0.085107185 -0.14012282 0.10907598
000210 bc f7 14 bd 08 3a 8c bd 3e b5 de bd 8a e4 2d 3e
       -0.03636907 -0.06847006 -0.10874413 0.16981712
000220 60 dc 09 bd 6c 59 25 3d 97 cc a8 bc 28 40 1c bd
       -0.03365743 0.040368482 -0.020605369 -0.03814712
000230 4e 62 2c 3e 8e 90 c4 bd 3a c3 4d bd 69 70 9e 3d
       0.16834375 -0.09597884 -0.05023501 0.07736284
000240 30 99 13 bd 4c 09 97 bd 58 79 d7 3d e2 5c db 3d
       -0.036034763 -0.0737482 0.10521191 0.10711075
000250 04 64 24 bd d9 b5 eb bd 78 fc 4d 3d 46 0a b2 bc
       -0.040134445 -0.11509294 0.0502896 -0.021733414
000260 48 88 22 be 02 27 87 bd 1c 47 85 3d b0 6c 8a bc
       -0.158723 -0.06599237 0.06507704 -0.01689753
000270 d2 cb 0a 3e a7 66 6e bd 0a 8c 88 3c 64 62 2d 3e
       0.13554314 -0.058203366 0.016668338 0.16932064
000280 84 30 cb 3d 70 bf 56 bd c3 19 c6 bb 1f ff fb 3d
       0.09921363 -0.052428663 -0.0060455515 0.1230452
000290 9a 99 e2 bc d0 74 0e 3c c6 3d 91 3d 76 79 08 3e
       -0.027661134 0.008694842 0.070918605 0.13327584
0002a0 7f 4d b2 bd de 92 8f bb f0 f8 20 3e 36 b9 79 bd
       -0.087061875 -0.0043815216 0.15719962 -0.060967647
0002b0 4b 09 26 be c0 34 56 bd c0 db 20 3c f8 59 e2 3c
       -0.16214482 -0.0522964 0.0098180175 0.027630791
0002c0 ba 60 11 be 98 79 8b 3d ed f5 2d 3e 6c f8 a6 bd
       -0.14197055 0.068103015 0.16988344 -0.081528515
0002d0 54 5e 37 3e 21 af 28 be 04 59 9c 3b b7 ff 8e bd
       0.17907077 -0.16473056 0.0047713537 -0.069823675
0002e0 46 47 99 bd 1e 5f 6c bd 50 2e 97 bd 38 b6 1c 3e
       -0.074842975 -0.0577079 -0.0738188 0.15303886
0002f0 20 65 0b be 88 58 1a 3e dd f6 d9 3b 95 3c 18 bd
       -0.13612795 0.15072834 0.006651743 -0.03716715
000300 22 cd c2 3d 91 2d 2f be 24 23 7b bd 48 ec 8c 3d
       0.09511782 -0.17107226 -0.06131281 0.068810046
000310 23 e2 0d 3e c9 e1 92 bc d2 9d bb bd 39 52 06 be
       0.13855796 -0.017929928 -0.09160961 -0.13117303
000320 d4 6b 1c be 80 47 2b be d5 a1 b7 3d 14 9f 09 3e
       -0.15275508 -0.16726494 0.08966414 0.1343959
000330 05 d9 2f 3c 8e 49 2c be d8 01 2e 3d d6 b0 87 3d
       0.010732894 -0.16824934 0.042482227 0.06625526
000340 10 c8 29 bd 31 6f eb 3d 82 8f 0a 3e dc f0 f9 bd
       -0.04145056 0.114958175 0.13531306 -0.122041434
000350 78 81 d8 3d 88 23 e9 bd 60 40 92 3d f7 ce 0f 3e
       0.10571569 -0.1138373 0.07141185 0.14043795
000360 00 d2 da 3b 67 99 15 3e c0 bf 4f 3d ee 5f f9 bd
       0.006677866 0.146093 0.050719976 -0.121765
000370 c0 ea 92 bd 89 ba 25 be c8 ca 9c 3d 06 19 14 be
       -0.07173681 -0.16184439 0.07655865 -0.1446267
000380 ed 0e 30 3e 9c f1 6a bd df 19 69 bd 1b 3d 35 3c
       0.17193194 -0.057359323 -0.05690944 0.011061932
000390 da d3 af 3d ad 7c e3 3c ed f8 e4 3c f8 aa 8e 3c
       0.08585329 0.027769411 0.027950728 0.017415509
0003a0 00 bf b3 3d dc dd cf 3d d0 0c 85 bc 3d bd 9c bd
       0.08776665 0.10149738 -0.016241461 -0.07653282
0003b0 d8 2c 56 3d e1 30 ac bd 78 16 fb bc 80 77 f8 bc
       0.05228886 -0.084077604 -0.030650362 -0.03033042
0003c0 be 46 9a 3d e8 95 13 bd 94 78 b3 3d ae 89 c8 bd
       0.07533024 -0.036031634 0.08763233 -0.09791885
0003d0 58 c6 fb bd b2 1e 59 bd 18 7d 26 bd 5a 36 96 bd
       -0.122936904 -0.05300779 -0.040646642 -0.073345855
0003e0 8c 5c 1d be 60 b6 62 bc 80 84 93 3a bb 52 c6 bd
       -0.15367335 -0.013837427 0.0011254698 -0.09683748
0003f0 ed 35 c5 bd c0 8f 0b bd 54 59 03 3e 40 7b 50 3b
       -0.09629426 -0.034072638 0.12827045 0.0031811744

fc1.bias f4 [64]
000000 06 5e 1b 3e ff c6 a5 3d 26 c9 47 3d 51 40 d5 bd
       0.15172586 0.08094596 0.048775814 -0.10412658
000010 06 a5 ad 3d 9e e4 0e be bc 7d 7b bd fc 1b 1a 3e
       0.08478741 -0.13954398 -0.061399207 0.15049738
000020 a4 cf 11 3e cd 3f ff 3b 34 21 ff 3d 7f 2d 5a 3d
       0.14239365 0.007789588 0.12457505 0.053266045
000030 e0 47 ed 3c 44 8e 85 bd 2d 8c 0b be c1 cb 4c 3e
       0.028964937 -0.06521276 -0.13627692 0.19999601
000040 14 53 1a 3d cc c7 5f 3e f4 5f ed bd 58 3f 39 39
       0.037676886 0.2185356 -0.11590567 0.00017666572
000050 15 75 c5 3d 4b 64 57 bd ce 28 08 3c 34 b5 fe 3d
       0.09641472 -0.05258588 0.00831051 0.124369055
000060 b1 7c 05 3e f6 ba 90 3d 1d 2d 0b 3e 42 e5 3b be
       0.13035847 0.0706691 0.13591428 -0.18349174
000070 38 75 88 3c d5 07 90 3d 1d 21 93 3d dd 29 56 bd
       0.016657457 0.07032744 0.0718405 -0.052286018
000080 fb a4 01 be 6a fc d9 bd 80 85 ef bb 01 c8 8a bd
       -0.12660591 -0.10643847 -0.0073096156 -0.06776429
000090 7e 7f fc bd f8 3a 25 3e 55 b6 28 be 14 25 37 bd
       -0.12329005 0.16135776 -0.16475804 -0.044713095
0000a0 46 bc 23 be 7c 1f a8 bd d0 51 70 3d 2c 1e ff bd
       -0.1598979 -0.0820913 0.058671772 -0.12456927
0000b0 b0 06 13 3d 62 00 eb bd 9a bc 11 be 97 74 bc bd
       0.03589505 -0.114746824 -0.14232102 -0.09201925
0000c0 db 71 38 3e d8 01 b3 3d fb 2f 07 3e 70 1a 08 3e
       0.18012182 0.08740586 0.13201897 0.13291335
0000d0 01 6a 3d 3e 42 59 47 3d 98 9e de 3d 78 95 83 3c
       0.18497469 0.048669107 0.10870093 0.016062483
0000e0 0a a3 67 bd 68 90 80 bd 48 a6 79 3d 9a 49 22 3e
       -0.05655197 -0.06277543 0.060949594 0.1584839
0000f0 b6 20 95 3d 30 4e 8e 3d 53 09 b3 3d 61 24 85 bd
       0.0728163 0.06948507 0.08742013 -0.06501079

gru.weight_ih_l0 f4 [192, 64]
000000 d9 9e 88 bd 02 0f a1 3c 8d 90 cf 3c 6c 07 3d 3d
       -0.06670923 0.019660477 0.025337482 0.046149656
000010 81 df 5a bd 14 a2 aa 3c 67 70 b6 3d f0 50 e7 3c
       -0.053435806 0.020829238 0.08908158 0.028236836
000020 bc 9c 92 3d 08 07 f9 3d de f2 f0 3d cf 9c d7 3d
       0.07158801 0.12159544 0.11765073 0.10527956
000030 06 ab eb bd 6a a6 58 bd 76 4b e4 3d 42 90 1e 3e
       -0.115072295 -0.05289308 0.111472055 0.15484717
000040 8a 40 bd bd 26 dc 22 3e 8d e5 9d 3c 79 e9 e6 3d
       -0.092408255 0.15904292 0.019274497 0.11275
000050 23 c3 f8 3d b3 82 81 bd 55 56 3b bd dd 39 57 bd
       0.121465944 -0.06323757 -0.04573663 -0.052545417
000060 ec a2 95 bc 90 56 dc bd ab 35 b7 bd 76 b7 9d 3d
       -0.018266164 -0.10758698 -0.08945783 0.07701008
000070 9c d9 77 bd 3a 60 bf bd 99 db 3d 3d 24 7d ef bd
       -0.060510263 -0.09344526 0.046352003 -0.116937906
000080 ec b5 03 3e 30 b2 05 3e 74 3c 75 bd ea 73 ce 3d
       0.12862366 0.13056254 -0.059872106 0.100807026
000090 45 0a 85 bb cd be 4a 3c 56 4f c4 3d a0 a3 ee 3d
       -0.004060062 0.012374592 0.09585445 0.11652303
0000a0 20 0e 88 bd 3c 9e 91 bc a4 de 8a 3c e7 82 f4 3d
       -0.06643319 -0.017775647 0.016951866 0.1193903
0000b0 12 b0 cc bd 0f b2 c5 bd 75 71 f1 3a 84 95 e1 3d
       -0.0999452 -0.096531026 0.0018420654 0.11014846
0000c0 6d 80 1d bd ea cd ea 3d 5e 73 f6 bc 30 2e 2c bd
       -0.038452554 0.11465056 -0.030084308 -0.042036235
0000d0 ba 9d 18 3e 3c 06 7e 3d 40 b6 df 3b 62 09 90 bd
       0.14903918 0.062017664 0.006827146 -0.0703304
0000e0 9b 8d 92 3d 46 43 8a 3d 30 49 49 3d 73 da 66 bd
       0.07155915 0.06751113 0.049142063 -0.056360673
0000f0 0e c9 cd 3c 2b bd 16 3c c4 64 91 bb 0c ad 52 bc
       0.025120284 0.009200375 -0.004437061 -0.01285864
000100 59 71 98 39 20 bd ab bc bb 2d fc 3d e8 f6 a4 bd
       0.0002907615 -0.020964205 0.1231341 -0.08054906
000110 e2 1b 14 3e 47 b2 d4 bc 8f a6 0d 3e b2 b6 89 3d
       0.14463761 -0.025963916 0.13833068 0.067242995
000120 6a e6 40 3d 8a 30 52 bc 44 5d 49 bd 10 7b 4b 3d
       0.04709474 -0.012828955 -0.04916121 0.04967791
000130 da ac c8 bd 1a 22 d1 3d 07 f1 af bd 84 f0 79 3d
       -0.09798594 0.102115825 -0.08590894 0.06102039
000140 67 66 ce 3b 92 5f 16 3e 46 d1 3c bd c4 23 38 bd
       0.0062988284 0.14684895 -0.046098016 -0.044955984
000150 ca 11 e9 3d 51 d1 99 bb 6a 04 cd 3d c6 31 cc bb
       0.11380346 -0.004694142 0.100106075 -0.0062315194
000160 01 f5 0d 3e 20 2a c8 3b 6c c7 f8 3d 97 3a 2e bb
       0.13862993 0.0061085373 0.12147412 -0.0026585215
000170 00 78 cb 3c da c1 a5 3d eb 57 06 3e 58 5e 36 bd
       0.024837494 0.08093615 0.13119476 -0.044523567
000180 da 1f 1d 3e 15 ef df 3a fc fd 7d bd 38 28 ce 3d
       0.15344182 0.0017084802 -0.062009797 0.10066265
000190 9b 34 27 3d bf 4b 45 bd 10 cd 91 bc 20 78 74 3c
       0.040821653 -0.04816794 -0.017797977 0.014921218
0001a0 60 a3 a4 bd a3 0c c9 3d 6c 37 cd bb 14 16 d3 bc
       -0.08038974 0.098168634 -0.0062627103 -0.025767364
0001b0 ec d6 0a 3d d2 a1 dd 3d 16 81 b2 3d 70 41 47 bd
       0.03389637 0.108218804 0.087160274 -0.04864639
0001c0 55 46 6d bd 70 92 9a 3c bb 7f 1d 3d 14 d4 02 3d
       -0.057928402 0.018868655 0.03845189 0.031940535
0001d0 ca 5a a2 bd 54 93 ba bd 88 8d 5c 3d 10 bf 26 bd
       -0.07927473 -0.09110132 0.053845912 -0.040709555
0001e0 1c 5f fb 3d ee 57 9c 3d 0e a0 8f 3d 8f c8 d3 3d
       0.12274 0.07633959 0.0701295 0.10340988
0001f0 40 9d ce 3d 87 2b 10 3d 8f a6 8c 3d 17 c8 c8 3d
       0.10088587 0.03519776 0.06867706 0.09803789
000200 ab 36 0e 3a 3c 75 d8 bb 82 28 b2 3d e1 39 f6 bc
       0.0005425016 -0.0066057723 0.086991325 -0.030056896
000210 c6 6c 04 3e 28 af 09 bd 5f 42 ef 3d 20 1a c1 3b
       0.12932119 -0.033614308 0.11682581 0.005893007
000220 32 9b ca 3d 3f f2 1b 3e 76 54 c9 bd fe c1 d7 ba
       0.098928824 0.15229128 -0.09830563 -0.0016461012
000230 b2 74 a2 bd 91 de df 3d cb 9e 1e bd 8f 7c 20 3d
       -0.07932414 0.10931123 -0.038725656 0.03918129
000240 9f 09 a8 bd 26 c6 eb 3d fb 37 0a 3d fb 55 af 3d
       -0.0820496 0.11512403 0.033744793 0.08561321
000250 35 b3 9d bc 28 32 bb 3d ca 04 e9 3d fb 58 90 bd
       -0.019250492 0.09140426 0.113778666 -0.07048222
000260 31 cd 4b bd 80 8d a3 bb 3f da b5 bd b2 c8 dd 3b
       -0.049756233 -0.0049912333 -0.08879518 0.0067683095
000270 f0 6c ad 3c 4a de a2 3d 5a a1 f1 3b 79 6f 25 bc
       0.02117011 0.079525545 0.007373971 -0.010097378
000280 00 05 30 bd ac bf f5 3d aa 57 8d 3d f1 3b c7 3d
       -0.04297352 0.11999449 0.06901486 0.0972823
000290 01 d7 d5 3c 87 98 01 3e 94 e6 00 3d 68 4f 88 bc
       0.026103498 0.12655841 0.031469896 -0.016639426
0002a0 c2 39 89 bd e4 79 8e bd 98 3e 1e 3e e3 2b bc 3d
       -0.067004696 -0.069568425 0.15453565 0.09188058
0002b0 28 7e b7 3c 93 96 db 3d d7 0c 1b 3e 50 c3 b8 3c
       0.022399023 0.10722079 0.15141617 0.02255407
0002c0 57 bc 36 bd 48 0f 6e bd cf 06 e1 3c 70 85 6d 3c
       -0.04461321 -0.058120042 0.027469067 0.014497146
0002d0 f9 a8 d2 3d 85 37 35 bd 00 38 97 b8 38 71 79 3d
       0.10286135 -0.0442424 -7.210672e-05 0.06089899
0002e0 4d bd 02 3e 40 dd 6c 3b be 99 fd bd d1 6c fd bc
       0.12767525 0.0036142617 -0.123828396 -0.030935677
0002f0 61 2a 8c 3d dc da c9 3c c6 36 6d bc 31 86 77 bb
       0.06844021 0.024640493 -0.014478391 -0.0037769193
000300 85 d2 7c bb ba 4b b4 39 3c 31 3c 3c 4e e4 11 3e
       -0.0038577628 0.00034388696 0.011486348 0.14247248
000310 c1 04 94 3c 42 0b b4 3b 2c c6 89 3b 22 51 a5 3d
       0.018068673 0.005494506 0.004204532 0.080721155
000320 2c 2b f0 3d a3 2f 60 bd b2 65 91 3d 72 69 5a bd
       0.117269844 -0.05473293 0.07099475 -0.053323217
000330 1c 62 0d 3d 3f 6e 2b 3d 70 d2 bc bd 58 89 18 bd
       0.034517393 0.041853186 -0.09219825 -0.037240356
000340 29 9f f8 3d d0 35 f1 3c 68 58 14 3e a4 ee 10 3e
       0.121397324 0.029444605 0.1448685 0.14153534
000350 46 c3 95 3d 58 3e 0f 3e b0 15 82 bd 27 03 3a bd
       0.07312636 0.13988626 -0.06351793 -0.045413163
000360 32 4c 9d bd 12 89 c5 bd 4a ca 2a bd 79 1b 95 3d
       -0.07680549 -0.09645285 -0.041696824 0.072806306
000370 de 29 9d 3d 31 1f ab 3b a1 0e 07 bc 1e 38 aa 3d
       0.07674001 0.005222224 -0.008243234 0.08311485
000380 b8 c6 a1 bd f4 5d 1d bc 04 70 95 bd 5c be 2d 3d
       -0.07899231 -0.00960492 -0.07296756 0.04241787
000390 35 db b9 3d 1f 61 86 bd b6 e0 8a bd bc 3d de 3d
       0.090750135 -0.06561493 -0.067811415 0.10851619
0003a0 20 0f af 3d d0 4a 17 3e bc 54 78 3d 3c 7b e1 3d
       0.08547807 0.14774632 0.060627684 0.11009833
0003b0 00 06 f6 3a 02 7b 47 3d c2 1d 05 3e e0 87 75 bd
       0.0018770099 0.048701294 0.12999633 -0.059944034
0003c0 24 dd 1b bd 30 6b aa 3d cd 1d 6c 3d 1c aa 67 3d
       -0.038052693 0.08321226 0.057645608 0.056558713
0003d0 74 bf ed 3d 25 97 8e bd 5c 17 03 3d 2c db 8c 3d
       0.116087824 -0.06962422 0.0320047 0.06877741
0003e0 ef 45 19 3e 88 ac 86 3d 94 ea 5f 3d 72 8f fb 3d
       0.14968084 0.065758765 0.05466707 0.122832194
0003f0 46 13 4e 3c d7 aa 01 3e d6 48 4b 3d 5b 2a d0 bd
       0.012577837 0.12662826 0.04963001 -0.10164329

gru.weight_hh_l0 f4 [192, 64]
000000 60 13 53 3c a8 31 b4 bd 08 12 14 bd c4 d9 14 3d
       0.012883037 -0.08798534 -0.03615001 0.03634049
000010 ce 2e eb bd 68 0d ba bd 7c cd 97 bd fc 13 7d 3d
       -0.11483537 -0.09084588 -0.0741224 0.061786637
000020 bc 49 52 bd 24 f9 85 bd b0 59 d0 bc a6 17 fa bd
       -0.05133985 -0.065416604 -0.025433391 -0.12211542
000030 82 d3 c2 3d 40 76 d9 bb 40 63 d1 3c 50 2f b4 bc
       0.09512998 -0.006636411 0.025560021 -0.021995217
000040 44 0a 8f bd be 8e 85 bd fa 7d aa 3d 74 d6 15 bd
       -0.0698438 -0.065213665 0.08324809 -0.03658147
000050 b6 7e ee 3d c8 34 da bd 60 b5 6d 3c 10 53 54 bc
       0.11645262 -0.106545985 0.014508575 -0.012959257
000060 04 23 49 3d a2 bb fd 3d 10 8e f5 bc a2 f5 ac bd
       0.04910566 0.12389304 -0.029974967 -0.08445288
000070 f8 a6 a6 3d 40 6f 21 3d 50 0b 8e 3d e0 72 b9 bc
       0.081373155 0.039412737 0.069357514 -0.022637784
000080 fa f1 c9 3d 56 d6 b5 bd 30 94 0d bc e4 23 76 bd
       0.098606065 -0.08878772 -0.008641288 -0.06009282
000090 f8 35 46 3d 58 9c fc bc 10 ee c4 bc 60 e7 de bc
       0.048391312 -0.03083627 -0.024039298 -0.027209938
0000a0 0a 1c c9 bd 60 d6 bf 3d a4 ec b0 bd 38 11 9b bd
       -0.09819801 0.09367061 -0.086388856 -0.075716436
0000b0 70 9a d9 3c ba 29 ad 3d 72 50 c9 bd bc a9 6b 3d
       0.0265629 0.08455224 -0.09829797 0.05753492
0000c0 ec f7 ec 3d 74 c0 c2 bd 54 7b a4 3d ac 4e c7 3d
       0.11570725 -0.09509364 0.080313355 0.09731802
0000d0 e8 08 5f 3d 0c 4b 26 bd 80 2d e6 3b 00 00 d9 bd
       0.054451853 -0.040598914 0.007024467 -0.10595703
0000e0 ae 70 f1 bd 9a 4d 9b bd b0 8e ac 3d 4c 35 45 3d
       -0.1178907 -0.07583161 0.08425653 0.04814653
0000f0 fa af f3 bd e0 15 cc 3b 64 10 e9 3d 94 7c ee bd
       -0.11898799 0.0062281936 0.113800794 -0.11644855
000100 fc eb b5 bd 30 3d a8 3c 54 e3 ef bd 08 39 7f 3d
       -0.08882901 0.020536989 -0.11713281 0.06231025
000110 2a 57 c3 3d 90 b6 64 3c dc f4 bc bd c0 29 41 3b
       0.095381096 0.013959542 -0.09226391 0.0029474348
000120 94 db 11 bd 70 fb 86 3d 80 24 12 3b c8 7e 9f 3c
       -0.035609797 0.06590927 0.0022299588 0.019469634
000130 cc 82 33 3d 40 86 e1 bd c8 14 eb 3d be 3b f1 bd
       0.04382591 -0.11011934 0.11478573 -0.11778973
000140 ec a1 2e 3d 40 54 df 3c 8a 73 82 3d d0 af 72 bd
       0.04263489 0.027261853 0.063696936 -0.0592497
000150 58 82 06 3d 60 13 b6 3c 7c 5f 86 3d 32 21 f0 3d
       0.03283915 0.022226036 0.06561181 0.117250815
000160 08 b5 dc 3d 50 79 25 bd f4 18 d4 3d fc 3d 75 3d
       0.107767165 -0.040398896 0.10356322 0.059873566
000170 e0 c5 1c 3c 38 c0 19 3d 62 f7 91 3d 96 2e cd 3d
       0.009568661 0.03753683 0.07127263 0.10018651
000180 1e 02 b2 3d ec 54 ee bd 58 8b 05 3d ce 74 8a bd
       0.0869181 -0.11637291 0.03260359 -0.0676056
000190 a8 44 8b bc f8 96 8b bc b4 2e 1a bd 96 d7 9a bd
       -0.017000511 -0.017039761 -0.037642196 -0.07560651
0001a0 42 f7 f6 3d a0 7d fd 3c 0c 45 f4 3d 20 72 ab bc
       0.120588794 0.030943692 0.11927232 -0.020928442
0001b0 20 3c a3 bb 86 3a d8 3d 50 5b 60 bc c2 31 a3 bd
       -0.0049815327 0.105580375 -0.013693646 -0.07968475
0001c0 ae 35 94 bd d8 5f 7a bd 42 52 e7 3d 44 99 f0 3d
       -0.07236801 -0.06112656 0.11294986 0.11747983
0001d0 68 f1 57 3d a8 2f 2e bd 7a 24 bc bd b2 9c 80 3d
       0.052720457 -0.042525917 -0.09186645 0.06279887
0001e0 46 fd 88 bd 86 15 ff 3d a0 15 38 3c 2c 43 43 bd
       -0.06688933 0.12455277 0.011235625 -0.047671482
0001f0 72 0d d2 3d 80 94 91 3b 08 33 9c bd b0 8d af bd
       0.10256471 0.0044427514 -0.07626921 -0.085719466
000200 1e 71 a2 bd 18 bf dc 3d fa 6e dd 3d e8 3a 6c bd
       -0.07931732 0.10778636 0.10812183 -0.057673365
000210 96 1d a6 bd e2 a2 87 3d 70 14 b1 bc 08 4d 1c bd
       -0.08111112 0.06622864 -0.02161619 -0.0381594
000220 40 50 0d bc 4c 18 eb bd 76 ac eb bd da c4 e1 3d
       -0.00862509 -0.11479244 -0.11507504 0.110238746
000230 cc e4 5a bd 40 4c 55 3d c0 58 ae bb 80 0e a8 3b
       -0.053440854 0.05207467 -0.0053206384 0.0051286817
000240 00 95 32 3b 2c 24 b6 bd 4c 35 27 3d f8 09 fd bc
       0.0027249455 -0.08893618 0.040822312 -0.030888543
000250 08 57 34 3d 7a d2 fe bd 70 1a 8b bd b0 3a 19 bc
       0.044028312 -0.12442489 -0.06792152 -0.009352371
000260 68 e0 65 3d 44 8c 01 3d b8 c3 78 bd e8 b7 12 3d
       0.056122214 0.03162791 -0.060733527 0.035819918
000270 18 27 86 3c a8 f7 bd 3d d8 8a a7 bd c0 24 40 3c
       0.016376063 0.09275752 -0.08180779 0.011727512
000280 16 52 cb bd 60 e1 cf 3d 52 69 d0 bd 00 b0 6b ba
       -0.09927766 0.10150409 -0.10176338 -0.00089907646
000290 50 e2 b6 3c 38 45 cd bc 68 f2 c6 3d 58 84 b4 bd
       0.022324711 -0.02505742 0.09714204 -0.08814305
0002a0 c0 01 60 bd 2c 80 ee bd b0 55 b6 bc 7e 61 d0 bd
       -0.05468917 -0.116455406 -0.022257656 -0.10174845
0002b0 c8 42 ec bd 7c 5c f5 bd c0 61 57 3b 80 33 e7 3d
       -0.11536175 -0.119805306 0.003286466 0.1128912
0002c0 cc f9 6d 3d e4 a6 46 bd 9c 2f 68 bd a8 cb 50 bd
       0.058099553 -0.048499003 -0.05668603 -0.05097547
0002d0 00 31 32 bb 88 d8 d1 3c 62 b9 85 3d e6 e6 95 bd
       -0.002718985 0.025615945 0.065294996 -0.07319431
0002e0 00 4c 0e b9 3c 5c d6 3d 40 0d b8 bc d6 c0 c6 3d
       -0.00013570487 0.10466811 -0.022467256 0.09704749
0002f0 60 86 ab bc 90 b1 33 bc ba d5 a7 3d be a3 c1 3d
       -0.020938098 -0.010967627 0.08195062 0.094550595
000300 20 0f 30 bd 90 9d fa 3c b6 eb 8a 3d d0 dc 74 bc
       -0.042983174 0.03059271 0.067832395 -0.014945224
000310 00 c6 f2 b9 02 81 e0 bd cc 33 f8 3d c8 31 a6 3d
       -0.00046305358 -0.10962106 0.121192545 0.08114964
000320 d2 d7 e2 bd ac 55 ee bd 18 40 9a bc 80 3c fd bc
       -0.11076321 -0.11637434 -0.01882939 -0.030912638
000330 64 58 28 3d e0 69 7a bd 9c 3c d3 3d 80 62 0e 3c
       0.04109992 -0.061136127 0.10314295 0.008690476
000340 56 f1 fd 3d c0 f1 5c 3c 70 01 d4 bc c8 95 f2 3d
       0.12399547 0.013485372 -0.025879592 0.11844975
000350 00 e2 2e bd 46 ab ff bd 38 34 8d bd 6c 16 36 3d
       -0.042696 -0.1248384 -0.068947256 0.044454977
000360 98 a5 8c bd fc 1f fa 3d 24 50 2c bd f4 09 72 bd
       -0.06867522 0.12213132 -0.042068616 -0.059091523
000370 20 7c 0d bc 1c 15 b9 3d fc 67 9c bd 60 ad 1c bc
       -0.008635551 0.090372294 -0.07637021 -0.00956282
000380 d8 3a b2 3d 40 5c d5 bd f8 62 81 bd ac d2 b1 3d
       0.0870263 -0.10417986 -0.06317705 0.086827606
000390 d8 61 6e 3d a8 8a 90 bd 54 9a 5d bd 12 c5 f4 bd
       0.05819878 -0.070576966 -0.054102257 -0.11951651
0003a0 06 28 a5 3d ec 47 db 3d 48 03 bf bc d6 69 a7 3d
       0.080642745 0.107070774 -0.023316994 0.081744835
0003b0 0e d3 b2 bd 0e 12 f9 bd 70 d6 41 bc 40 b8 8c bd
       -0.08731662 -0.12161647 -0.011830911 -0.068710804
0003c0 e0 77 a7 bb 32 bb d4 bd 20 6a 73 bc 64 89 4f 3d
       -0.0051107258 -0.10387267 -0.014856845 0.050668135
0003d0 54 e4 59 3d 8a 20 da bd a4 ef 11 3d 7e 86 b4 3d
       0.053196266 -0.106507376 0.03562893 0.08814715
0003e0 ca ca b7 3d 50 eb 29 3d 2c 4e b4 3d 00 27 9e bc
       0.08974226 0.041484177 0.088039726 -0.019305706
0003f0 c8 17 b7 3d 28 5d 28 bd e0 b3 da 3d 90 ca d4 3c
       0.08940083 -0.041104466 0.1067884 0.025975496

gru.bias_ih_l0 f4 [192]
000000 7d 60 83 3d 99 98 23 bd 25 08 49 bd 24 0b 70 bd
       0.06414888 -0.03994045 -0.049080033 -0.058604375
000010 0e 70 b0 3c d7 29 0b be 56 7f 08 3d ae 09 a4 bd
       0.021537807 -0.1359018 0.033324562 -0.08009659
000020 8f 0f ca 3d 37 4b d1 3d 19 8b 4e 3d d1 82 d2 bc
       0.09866249 0.10219424 0.050425623 -0.025697144
000030 76 13 8d 3d 9e 12 83 bd f8 8e 8c 3d 1f 9e 94 bc
       0.068884775 -0.06400035 0.068632066 -0.018141804
000040 b6 4b e1 bd fe e7 c6 3d b5 da 5c 3b f9 93 7b bd
       -0.11000769 0.09712218 0.0033699695 -0.061420415
000050 59 90 51 bd ed d1 d7 3d 35 4c 1a bd 3c f5 c6 bc
       -0.05116305 0.10538087 -0.037670333 -0.024286859
000060 da d3 61 bd ba ea 1c 3e 95 31 84 3c 8d 85 b2 3d
       -0.055133678 0.15323916 0.016136924 0.08716879
000070 e9 e3 f4 bd 4e c8 9f bd d0 da 86 bd c2 7e fb 3d
       -0.11957533 -0.07801877 -0.06584704 0.122800365
000080 00 89 94 bd 02 2e 89 bc 0d cb 5d bc 12 ec 1d 3d
       -0.07252693 -0.016745571 -0.013537181 0.038555212
000090 80 c9 7d 3d ef 57 df 3d 4c eb 0e bd cc 25 96 bd
       0.061959743 0.10905444 -0.034892365 -0.07331428
0000a0 2a a2 95 3d e7 73 91 3d b9 67 3d bd c5 10 22 be
       0.07306321 0.07102185 -0.046241496 -0.1582671
0000b0 47 5d 93 3d 43 d8 9e bd 80 64 df bc c9 94 61 3d
       0.071955256 -0.077560924 -0.027269602 0.055073533
0000c0 af be f7 bd cb 63 eb 3d 3d f0 d7 bd 58 bd 85 bc
       -0.12096917 0.114936434 -0.10543869 -0.016325638
0000d0 65 ed a9 3d c7 a0 92 bd d4 96 46 bd 8b c4 e2 bd
       0.082972325 -0.07159572 -0.048483685 -0.11072644
0000e0 07 bc d9 bd 47 a5 9e 3c 03 ff 0f 3e 64 0e ae 3d
       -0.106315665 0.01936592 0.14062123 0.084988385
0000f0 1e 5a 94 bd 11 c7 43 bd 9e fc 14 3e 54 21 82 3d
       -0.07243751 -0.047797266 0.14549491 0.06354013
000100 e9 88 9b 3d 4b 08 fd 3b ca 8a a3 bd 3b 04 c1 bd
       0.07594473 0.007721936 -0.07985456 -0.09424635
000110 e0 36 62 bd ac 05 b9 3d 52 ff 69 3d 41 cb a2 bd
       -0.055228114 0.09034285 0.057128258 -0.07948924
000120 c6 e2 16 be 14 1b 09 3a 4f de cb bd 9b de 1a bd
       -0.14734945 0.000523017 -0.099545114 -0.03780995
000130 22 ff fd bd da 86 dd bd 76 e3 77 3d 47 51 9b 3b
       -0.12402178 -0.108167365 0.060519658 0.0047399136
000140 5a fa 0b 3b a9 a3 a4 bd 90 72 b8 bd 0c df 00 be
       0.0021358938 -0.08039028 -0.09006226 -0.12585086
000150 e6 4d 52 3d 57 61 c8 3d fb f9 32 bd e5 13 4d 3d
       0.05134382 0.09784191 -0.04369543 0.0500678
000160 ab 64 c8 3b bf b4 1d 3d 5b 74 5a 3d 38 b5 16 3d
       0.006115516 0.03850245 0.05333362 0.036793917
000170 81 95 60 bb f2 74 d7 bd da c9 0f be a4 76 4a bd
       -0.0034268799 -0.105203524 -0.14041844 -0.04942955
000180 ce 38 d4 3c e0 5c 4b bd 92 19 0a be 27 57 ff bc
       0.025905993 -0.04964912 -0.13486317 -0.031169487
000190 ba 60 67 bd 3d 5f 52 3d 5c ab 06 3c 68 cc 60 3c
       -0.05648873 0.051360358 0.008219566 0.013720609
0001a0 be 9d fa bc 1c 12 91 bd 78 8b 43 3d a1 b7 d4 3d
       -0.030592795 -0.07083532 0.04774043 0.10386587
0001b0 37 e8 15 ba 27 6e 5e bc 07 50 39 bd a5 31 bb 3d
       -0.00057185016 -0.013576067 -0.045242336 0.09140328
0001c0 78 02 37 bd 74 e9 8c bd 7c 03 c9 bc 23 67 29 be
       -0.04468009 -0.06880465 -0.024537794 -0.1654325
0001d0 5e ec 0d 3d 24 b9 af 3d aa 81 d4 3c 1b 60 e6 3b
       0.034649245 0.08580235 0.025940735 0.0070304996
0001e0 65 8e 42 bd ff 97 ac bd 24 2f 70 bd ab 54 c2 3c
       -0.04749908 -0.084274285 -0.058638707 0.023722013
0001f0 87 7a a2 bd 34 6f 5d 3d 18 9d 0a bd fe 9a b8 bd
       -0.079335265 0.05406113 -0.033841223 -0.090139374
000200 83 ba be bd 46 8a 16 3e b4 64 16 3e f4 f5 54 bd
       -0.09312918 0.14701185 0.14686853 -0.05199237
000210 6a d2 21 bc 5d 0e 01 3e c7 9b bd 3d 94 45 21 3b
       -0.009876827 0.12603135 0.09258228 0.0024608122
000220 49 ed 51 3d 29 1a 94 bd 05 c7 90 bd 98 bb 24 3d
       0.051251683 -0.07231552 -0.0706921 0.040217966
000230 3f e1 40 3d 1c 34 93 bc 7e 31 0a be df a7 b2 bd
       0.04708981 -0.017969184 -0.13495442 -0.08723425
000240 e6 5c 6c 3d 03 cd ff bd 5f 4f b0 bd d0 9f d4 bd
       0.057705782 -0.12490275 -0.08608889 -0.10382044
000250 94 b1 76 bd d8 3a 54 bd 60 df 03 be 67 10 24 3e
       -0.060227945 -0.05181393 -0.1287818 0.16021882
000260 aa 34 1b 3e 4b 6a 60 3d 3a 9a b9 bd 12 b7 a2 bc
       0.15156808 0.05478887 -0.090626195 -0.019862685
000270 0f 49 51 3d 0f 96 d2 3d ba eb 30 bd 27 b5 3d bd
       0.051095065 0.10282528 -0.043193556 -0.04631534
000280 42 93 e5 bc b7 f4 d5 3b c7 1f ab bd 62 09 39 bd
       -0.02802432 0.0065294164 -0.083556704 -0.045174964
000290 e9 f8 ea bd 72 48 f1 b9 22 9d 98 bd f6 fb ce bd
       -0.11473257 -0.00046021078 -0.07451846 -0.101066515
0002a0 06 bd d0 bc 87 cc 52 3d 52 dd 9d bd 64 c5 81 3d
       -0.025480758 0.051464584 -0.07708229 0.063364774
0002b0 87 04 4d bd ae 75 03 3e 6e 67 b9 bd b7 6e 6c 3d
       -0.050053146 0.1283786 -0.09052931 0.057722773
0002c0 5a 69 3e 3d d1 f3 be bd 3f 48 4d 3d d9 c7 06 bd
       0.04648719 -0.09323848 0.050117727 -0.032905433
0002d0 5e 4e 77 3d 1d 61 80 3d c6 b7 84 bd b1 51 09 be
       0.06037747 0.06268523 -0.064803645 -0.13410069
0002e0 74 e7 71 3d b4 a8 b7 bd b3 06 ea 3c f2 da 95 bb
       0.05905862 -0.089677244 0.028567648 -0.0045732195
0002f0 ab 70 e4 bd 11 7a 06 be 9b d3 00 3d a6 e9 e9 bd
       -0.11154302 -0.13132502 0.031451803 -0.11421518

gru.bias_hh_l0 f4 [192]
000000 7e 11 13 3d ff 89 1f 3e 18 11 df 3d 2a 10 05 3e
       0.035905354 0.15579985 0.10891932 0.12994447
000010 97 c4 a9 3d 74 5c aa 3c c3 d7 3d bc de 20 54 bd
       0.0828945 0.020796038 -0.011587086 -0.051789157
000020 3c 21 10 3e 58 63 b6 bc 66 17 01 3e d9 2e a8 bd
       0.14075178 -0.022264168 0.12606582 -0.082120605
000030 11 eb aa bc d2 1d d4 3d 76 8b f7 3c 5a 48 51 3c
       -0.020864042 0.1035725 0.030217867 0.012773598
000040 3c 70 66 3c 04 2c 28 bd 9b 6f 29 3c 8b 15 11 be
       0.014064845 -0.0410576 0.01034155 -0.14168374
000050 0c a4 f1 bd a6 56 fd bc b5 1b 2e bd af cf 07 be
       -0.117988676 -0.030925106 -0.042506892 -0.13262819
000060 4b 63 ed 3d 96 d5 86 3d ce d8 50 3d 3c 56 a3 bc
       0.11591204 0.06583707 0.05098801 -0.01993858
000070 da 50 76 3c d6 60 f1 bd fc 41 f3 bc 9e 61 a8 bd
       0.015033925 -0.11786048 -0.02969455 -0.08221744
000080 62 4e d5 3d 7a 76 f4 3b a8 56 62 bd af 00 bd 3d
       0.10415341 0.0074604126 -0.055258423 0.09228646
000090 f4 37 7f bc a6 5e a1 3d 47 3d 9c 3d b6 a2 c9 3d
       -0.015577305 0.07879381 0.07628875 0.09845488
0000a0 be 73 d7 3d 23 db 58 3c c6 28 87 bd bb 2f 30 3c
       0.10520123 0.01323584 -0.06599574 0.010753567
0000b0 ec 61 48 3d 71 9a 9a 3d af 6b cd bb 43 18 fe 3d
       0.04892151 0.075489886 -0.0062689404 0.12406971
0000c0 72 08 03 3c cf 5b 9f bd ee c9 0a be 37 fa b5 bc
       0.007997619 -0.07781183 -0.13553593 -0.022214038
0000d0 f2 df a6 bc 23 27 04 3d b4 ea 77 bd 51 95 bf bd
       -0.020370457 0.032263886 -0.060526565 -0.09354652
0000e0 15 90 fb bd 75 5d b0 bd d1 b5 64 bd ad 9b 12 3d
       -0.12283341 -0.086115755 -0.055837456 0.035792995
0000f0 a1 29 09 be 40 7f 8e 3c 77 e8 a5 3d f1 9a 39 bd
       -0.13394786 0.017394662 0.0810098 -0.04531378
000100 45 cc 1d 3d ac 0e 0f be 48 bf ed bd 4d d6 c2 3d
       0.038524885 -0.1397044 -0.1160875 0.09513531
000110 8c 7b 7e 3c 26 dd ef 3c f6 ac 3b bb 24 54 7f bd
       0.015532386 0.029280256 -0.0028637028 -0.062336102
000120 85 99 17 be e9 26 14 be f6 2b 21 be 81 17 fe bc
       -0.14804657 -0.14467968 -0.15739426 -0.031017067
000130 eb b5 14 be 7b 0c 75 bd 35 e4 37 bd 13 3e a5 bd
       -0.14522521 -0.059826355 -0.04489537 -0.0806848
000140 7c f2 af bd ee d4 fc bd b0 c5 b9 bc d0 a3 02 b8
       -0.08591172 -0.123453006 -0.022677273 -3.1146978e-05
000150 05 c4 6c 3d b4 d5 72 bd ec 11 27 bd 21 02 4b bd
       0.057804126 -0.059285834 -0.040788576 -0.049562577
000160 4b 24 69 bd e2 a2 0d be 35 7d c1 bd ab 8c 8c 3d
       -0.056919377 -0.13831666 -0.094477095 0.06862768
000170 a7 36 00 be 61 91 18 3d 62 c5 a7 bc 92 14 f6 bd
       -0.12520848 0.03724802 -0.020479862 -0.12015642
000180 9a 95 73 bd 0e 0a d6 bd 38 7c b1 bd dc 8a 69 bd
       -0.059468843 -0.104511365 -0.08666271 -0.057017192
000190 72 82 07 be a9 51 25 bd 67 67 97 bd e2 5a b9 bd
       -0.13233355 -0.04036108 -0.07392769 -0.09050538
0001a0 0a 43 14 bd e1 a2 09 be 26 e5 85 3d 78 0c 03 3d
       -0.036196746 -0.1344104 0.06537847 0.031994313
0001b0 6c be 13 3e e3 71 d6 3d aa 53 2a bd 20 b1 34 3d
       0.14428109 0.10470941 -0.041583695 0.044114232
0001c0 1c 09 0e bd 23 2d 07 3d 3b 59 9d bc ff 29 17 be
       -0.034676656 0.03300203 -0.019207587 -0.14762114
0001d0 ef 95 10 3e 1c 11 b9 3d ca f4 df 3c 41 e3 b5 3d
       0.14119695 0.090364665 0.027338404 0.08881236
0001e0 7f 07 c5 bc 07 4a 1c bd 03 85 99 bc 84 4f af 3d
       -0.024051426 -0.038156535 -0.018740183 0.08560088
0001f0 b9 45 1f be 58 61 2c 3c ae 54 14 be 5c 61 a0 3c
       -0.15553941 0.010521255 -0.14485428 0.019577675
000200 a6 57 1d 3e d9 3e 80 3d 19 e9 1d 3e 79 60 ab bd
       0.15365466 0.06261987 0.15420951 -0.0836801
000210 66 49 12 bd 41 66 d1 bb ae 46 c2 3d 60 64 8c 3c
       -0.03571453 -0.0063903634 0.09486137 0.017137706
000220 a8 51 06 be df ed 07 3e 8a d7 72 3d 3e 17 8f 3d
       -0.13117087 0.13274334 0.059287585 0.06986855
000230 ea f0 b2 3d 55 75 85 3d 44 2e 5f 3c 12 c7 b5 3d
       0.08737357 0.0651652 0.01362187 0.0887586
000240 98 60 8e bd 05 f9 ad bb 83 31 53 3d 80 1f 17 3b
       -0.069520175 -0.0053092265 0.05156089 0.0023059547
000250 88 bb 1a bd 28 ea a9 bd 47 59 7b bc 6f b3 52 bc
       -0.0377765 -0.08296615 -0.01534111 -0.012860163
000260 64 22 03 3e b8 64 cd 3d d9 a9 be bd a0 a3 e7 3c
       0.12806088 0.10028976 -0.093097396 0.028276265
000270 d4 1d ae bd 1c 2e 2e ba 9a 6f 15 3d eb 99 53 3d
       -0.08501783 -0.0006644444 0.036483385 0.05166046
000280 89 03 70 bc 1d d8 8e bd 7d 6e 97 bc f1 20 2b be
       -0.01464928 -0.06974814 -0.018485302 -0.16711785
000290 33 4c 89 3d fc 42 08 3e 74 44 3a bc b4 44 13 be
       0.06703987 0.13306803 -0.01136886 -0.14381677
0002a0 20 ba bd bd 5f 10 44 bd dd 2b 0c be 45 82 51 bd
       -0.09264016 -0.047867175 -0.13688608 -0.051149625
0002b0 07 dc 5c bd a1 ba cc 3d d1 f3 60 bd 5d 0a 96 3d
       -0.053920772 0.09996534 -0.05492002 0.073261954
0002c0 91 df c9 bd 4d 7c c8 3d d0 3c 62 bb 12 42 c2 3c
       -0.09857095 0.097893335 -0.003452111 0.023713145
0002d0 20 cc aa bd 1f 27 e4 3d bd 08 d2 bb e4 c4 17 bc
       -0.08339715 0.11140274 -0.006409733 -0.009263251
0002e0 b1 a6 81 3d dd 48 de bc 32 84 7d 3d 04 b6 9e 3d
       0.06330622 -0.027134353 0.06189365 0.077495605
0002f0 f9 4f 36 3c fa c6 32 bd 52 6a d3 3d de 52 ca 3d
       0.011127465 -0.04364679 0.10323013 0.09879087

fc2.weight f4 [25, 64]
000000 56 9d f1 bd 64 81 a1 3d e2 31 01 be 81 b0 74 bd
       -0.117975876 0.078860074 -0.12616685 -0.05973864
000010 78 b0 22 3c 55 02 cd bc fb c4 d2 bd ac db 86 bd
       0.009929769 -0.025025526 -0.10291477 -0.06584868
000020 64 3d e3 3d aa 95 03 3d 44 cb c3 bd 90 76 a4 bd
       0.11095694 0.032125153 -0.09560254 -0.080304265
000030 98 c0 c7 bd c1 a9 ff bd 73 91 ff bc 6b 38 a5 3d
       -0.09753531 -0.1248355 -0.031197285 0.080674015
000040 6f 78 20 be 2b 6a b3 3d 0e fb f8 bc 05 42 fa 3d
       -0.15670942 0.08760484 -0.03039315 0.122196235
000050 e1 59 37 3d 1e 2c 7f 3d 00 57 28 3e ba c8 a2 3c
       0.04476345 0.062297933 0.16439438 0.019871105
000060 1e d5 9a bd a8 fa 82 bd 1a 44 0a be 54 58 48 3d
       -0.0756018 -0.06395465 -0.13502541 0.04891236
000070 2b 09 18 3d 2c 41 1d 3c fe b4 20 bc f9 ab e6 bd
       0.03711812 0.009598058 -0.009808777 -0.1126327
000080 1d 6e e0 3d 1b 0a 9e 3d fa d5 f8 3d 7c 0c 07 bd
       0.109585024 0.07716771 0.12150188 -0.03297089
000090 37 10 79 bd e8 71 21 be 37 68 a5 bb d8 1b ad 3d
       -0.06080648 -0.15766108 -0.005047824 0.084525764
0000a0 15 05 cc 3d 78 92 f5 3d 25 ed 8d 3d d0 9b 98 3d
       0.09961907 0.11990827 0.06929997 0.07451594
0000b0 cf 91 1d be 13 80 db bd f5 d7 6e 3d 8a 27 9f 3c
       -0.15387653 -0.107177876 0.05831142 0.019428033
0000c0 a3 3f 39 bc 47 78 3f 3a 96 01 6e bc 73 f5 25 3e
       -0.011306676 0.00073039945 -0.014526745 0.16206913
0000d0 4b 8c 0c be 86 8e dd bd 8c c2 0b 3d ea ad db 3d
       -0.13725393 -0.108182 0.03412108 0.10726531
0000e0 90 78 27 3e 92 61 bd 3d 48 9b bf bc 60 45 e6 bc
       0.16354585 0.09247126 -0.023389474 -0.028109252
0000f0 3f 51 5f 3d a1 dc ac 3d 7e d3 15 3e e1 6a 10 3e
       0.05452084 0.08440519 0.14631459 0.14103271
000100 5d d6 08 bd 77 45 e9 3c f8 65 28 be 8b e7 ee bd
       -0.033407558 0.028475506 -0.16445148 -0.11665257
000110 02 f0 16 bd 2f 2a f2 bd 11 76 4b 3d f8 46 b3 3d
       -0.036849983 -0.11824452 0.049673144 0.087537706
000120 55 fb ad bd 64 ce fc 3d 33 42 4e 3d 1e 99 eb bd
       -0.084952034 0.123440534 0.0503561 -0.11503814
000130 48 e5 03 be de e0 94 bd 30 cc 12 3e fd 02 e9 bd
       -0.12880433 -0.072694525 0.14335704 -0.11377523
000140 1a 45 55 3d 77 b7 3d bd 8c 21 0b 3d f6 59 d4 bd
       0.052067854 -0.046317544 0.03396754 -0.10368721
000150 68 bb b8 3d 2a 57 71 bb 36 8c 1b 3e aa ed c3 bc
       0.0902012 -0.0036825635 0.15190205 -0.023917038
000160 88 e8 b5 bd c5 92 48 bd 86 14 19 be 50 00 80 3d
       -0.088822424 -0.048968095 -0.14949235 0.062500596
000170 52 7a 0f bd 67 aa e2 3b 8a 82 b3 bd d2 b6 54 bb
       -0.035028763 0.006917286 -0.08765133 -0.0032457602
000180 f6 c0 b4 3d aa 9e 16 3c b9 81 08 3e 18 55 2b 3d
       0.08825867 0.009193102 0.13330735 0.0418292
000190 a2 41 02 be 73 6c f2 bd b8 f3 f2 3d d3 5b 98 3d
       -0.1272035 -0.11837091 0.11862892 0.07439389
0001a0 13 e6 4d bd 57 9b 86 bd 85 bf fe bc f6 27 74 3d
       -0.050268244 -0.065725975 -0.031097183 0.059608422
0001b0 92 ab 2d bd 7d f8 e7 bd a6 1f e7 bc a5 90 ab 3c
       -0.04239995 -0.11326692 -0.028213333 0.020942995
0001c0 92 54 04 bd ea 4a 10 3e 31 fa cd 3a f7 3e a2 3c
       -0.032307215 0.14091077 0.0015714822 0.019805415
0001d0 e0 a7 80 bd 7f fd 49 3d 48 40 49 bd fe f4 71 bc
       -0.062820196 0.04931402 -0.04913357 -0.014767883
0001e0 e3 0d 1d 3e 64 7b 16 3e c8 24 e2 bd 97 64 cb 3d
       0.15337329 0.14695507 -0.11042172 0.09931295
0001f0 6f a5 59 bd 3c cf f5 3d 19 d1 a6 3c 03 c2 b9 3d
       -0.053136285 0.120024174 0.020363377 0.09070208
000200 48 fd 94 3d 7d a6 ae bd 9a 6f 20 be 13 f1 8e 3d
       0.07274872 -0.08527849 -0.15667573 0.06979575
000210 95 a8 c0 bc 63 17 a9 bd c9 a5 da bd a7 dd c1 3d
       -0.023517886 -0.08256414 -0.10676152 0.09466105
000220 b8 42 9d 3d 56 30 a8 3d ad 41 0b be 8a a8 18 bd
       0.07678741 0.08212344 -0.13599272 -0.037270106
000230 96 10 50 bd 54 19 97 3d 21 98 99 3d ec 1b 8a 3b
       -0.050797068 0.07377878 0.074997194 0.0042147543
000240 d2 95 57 3d d7 83 83 bc 33 c4 b5 3d 01 66 b9 3d
       0.052633114 -0.016054077 0.08875313 0.09052659
000250 0b 9d 82 bc ce ef af 3c 90 3a 7f bc 94 9b 95 3d
       -0.015944025 0.021476652 -0.015577927 0.07305065
000260 86 81 bf 3d b9 4a 94 3d 7f ed 8a bd 32 11 f8 3c
       0.093508765 0.07240815 -0.0678358 0.030281637
000270 c2 cd e0 bc 3a ab 64 bd 2e 51 f1 bd ee 45 af 3d
       -0.027441863 -0.055827357 -0.11783062 0.0855826
000280 e8 67 4c 3d 26 02 63 3d 93 ce ca 3d d6 51 48 3d
       0.04990378 0.05542197 0.09902682 0.04890617
000290 4e 58 e3 bd ea e6 09 be 36 76 72 3d 47 73 4d 3c
       -0.11100827 -0.13466993 0.059194766 0.012539691
0002a0 e5 78 4f 3d e8 54 30 bd 12 7e 33 3d 2a c4 5d bc
       0.050652403 -0.043049723 0.043821402 -0.013535539
0002b0 96 ee 06 be 04 31 d5 3b 39 27 37 3d c2 7e ad bd
       -0.13176951 0.0065060873 0.04471514 -0.08471443
0002c0 bc a9 03 3e bf 7c b3 3d cd 73 9a bc d6 35 c6 3d
       0.12857717 0.08764028 -0.018854046 0.09678237
0002d0 51 99 b7 bd a0 0d 48 bd 51 54 b8 bd b4 df 41 bd
       -0.0896479 -0.04884112 -0.09000457 -0.04733248
0002e0 55 d3 10 3d 23 cc ee 3d 29 76 07 be 10 9f 98 bd
       0.035357792 0.1166003 -0.13228668 -0.07452214
0002f0 be 6e 6c bc 4e 89 8a 3c b3 2c 2e bd ee 92 45 3d
       -0.0144307 0.016911175 -0.042523097 0.048235826
000300 1e 2d 84 3d 74 97 85 bd 3a 85 8d bd 35 3d c0 3d
       0.06453918 -0.06523028 -0.069101766 0.09386674
000310 73 98 a6 bd 45 df 8a bd 9f 5e 73 3c c3 e0 c8 3d
       -0.08134546 -0.067808665 0.014854102 0.09808495
000320 26 3c a8 bd d0 f4 a9 bd 25 74 0f be 0b a7 1e 3c
       -0.082145974 -0.082986474 -0.1400915 0.009683381
000330 1e da b2 bd a4 c5 41 bd 29 24 9d 3d 6c d7 2f 3d
       -0.08733009 -0.047307625 0.076729126 0.04293005
000340 51 2c 30 be 53 12 ea bc c6 ec ea 3d 17 74 57 3c
       -0.17204405 -0.02857319 0.11470942 0.013150237
000350 6b 82 ac 3d 0a fc 8b bd 88 c0 07 39 65 28 10 bc
       0.08423313 -0.06835182 0.00012946327 -0.008798693
000360 7d 6c c2 bd 1c 3a 9c bc eb 8a 7c bd 1c c1 32 bc
       -0.09493349 -0.019070677 -0.06165592 -0.010910299
000370 ba ca 7b 3d 48 f0 a6 bc 0d 03 11 bd b6 46 09 bc
       0.061472632 -0.020378247 -0.0354033 -0.008378675
000380 9d df 45 bd 88 02 03 bd 95 33 c3 3d 12 4e 99 3d
       -0.048308957 -0.031984836 0.09531323 0.07485594
000390 28 c3 41 3d 14 13 2a 3c 4f 95 ce 3c 53 ac e9 bd
       0.047305256 0.010380525 0.02521768 -0.11409821
0003a0 8c 6d af bc c0 64 b7 3d e8 24 fe 3d a2 9a ca 3d
       -0.02141454 0.089547634 0.12409383 0.09892775
0003b0 a5 f1 13 be 92 84 08 bd 62 e4 e7 bc fb 8b 0c 3d
       -0.14447649 -0.033329554 -0.028307144 0.034313183
0003c0 96 f3 cc bc 99 44 f2 bc 72 94 f7 bd a7 8c 0a 3e
       -0.025018495 -0.029573726 -0.120888606 0.13530217
0003d0 15 ec d9 3d 4c c6 37 bd 0e 80 51 3d 0b df 85 3c
       0.10640732 -0.044866845 0.051147513 0.016341707
0003e0 41 9c 53 bd b3 11 8a 3d f7 fe f0 bd 94 c1 ff bc
       -0.051662687 0.06741657 -0.11767381 -0.031220235
0003f0 c6 45 12 3e 19 ac 01 3e b2 4e 22 3d 45 fe 54 bd
       0.14284429 0.12663306 0.03962583 -0.052000303

fc2.bias f4 [25]
000000 61 63 1b be 9e 12 66 3d 33 5e 1c be d0 17 64 3d
       -0.15174629 0.0561701 -0.15270309 0.055686772
000010 32 ee 81 3b c1 52 4c 3d 00 6b 8b bc 77 5b fc bd
       0.0039651627 0.049883608 -0.017018795 -0.12322133
000020 79 0c bd bd 42 52 5f bd fc c9 23 38 18 bd ea 3c
       -0.092308946 -0.054521807 3.905034e-05 0.02865462
000030 aa c4 68 bd df 4f ac 3d 0a 68 1a be aa 04 24 bd
       -0.05682818 0.08413672 -0.1507875 -0.04004351
000040 dc 0e 1f be 50 09 12 bd ff 09 91 3d ad f9 e0 3b
       -0.15533012 -0.035653412 0.07081985 0.006865701
000050 3e d7 05 be 45 33 1e be af 71 9e 3d 10 ba 06 3d
       -0.1307039 -0.15449245 0.07736527 0.032892287
000060 b4 fd b9 bd
       -0.09081593
