models/gdn_model.pth (torch_old, 8095 bytes, 6 tensors)

feature_means f4 [20]
000000 cd cc cc b1 cd cc 4c 30 33 33 c3 b1 cd cc 4c 31
       -5.9604646e-09 7.4505807e-10 -5.6810676e-09 2.9802323e-09
000010 9a 99 19 32 cd cc cc 31 00 00 00 00 00 00 00 00
       8.940697e-09 5.9604646e-09 0.0 0.0
000020 cd cc cc b1 9a 99 19 b2 66 66 a6 31 9a 99 99 b1
       -5.9604646e-09 -8.940697e-09 4.842877e-09 -4.4703485e-09
000030 cd cc cc b1 00 00 46 42 00 00 80 3f 00 00 00 40
       -5.9604646e-09 49.5 1.0 2.0
000040 00 00 40 40 00 00 80 40 00 00 a0 40 00 00 c0 40
       3.0 4.0 5.0 6.0

feature_stds f4 [20]
000000 0b 87 a6 3e 13 98 3c 3e 00 b6 a8 3e 57 99 e6 3e
       0.32524905 0.18417387 0.32951355 0.45038864
000010 a3 dc a0 3e 49 ab ad 3e c2 c4 b1 3e 5f b9 7c 3e
       0.31418332 0.33919743 0.34720427 0.24680088
000020 32 81 95 3e 1e cd 89 3e bf 4a bf 3e 91 bb 73 3e
       0.2920013 0.26914304 0.37361714 0.2380202
000030 47 a2 9d 3e 48 36 f2 41 bd 37 86 35 bd 37 86 35
       0.3078787 30.276505 1e-06 1e-06
000040 bd 37 86 35 bd 37 86 35 bd 37 86 35 bd 37 86 35
       1e-06 1e-06 1e-06 1e-06

fc1.weight f4 [64, 20]
000000 b8 4b 49 3d 04 11 b4 3d 68 7f e5 3d 52 f4 54 3e
       0.049144477 0.08792308 0.112059414 0.20796326
000010 bc f4 14 be 89 34 29 be 48 37 d2 3d e2 5e 1b 3e
       -0.14546484 -0.16523947 0.1026445 0.15172914
000020 30 51 57 3d c0 39 91 3d bc 4d bd 3d 6e 53 1a 3e
       0.05256766 0.07091093 0.09243342 0.15070888
000030 88 2c 2c 3e 48 6e 33 be 5a f4 1b be fa 38 01 3e
       0.16813862 -0.17522538 -0.15229931 0.12619391
000040 19 0d 38 be 54 5a c9 3d 08 03 68 bd 24 2d 93 bd
       -0.17973746 0.09831682 -0.056643516 -0.07186344
000050 1c 3f d8 3d c2 67 63 3e 58 8d 64 3e 58 29 a8 3c
       0.10558912 0.22207549 0.22319543 0.020527527
000060 83 30 57 be 10 c2 8e 3c 46 85 19 3e 08 1e 98 3d
       -0.210146 0.01742652 0.14992246 0.07427603
000070 82 e0 26 3e f0 a2 a9 bd 40 85 9d bc 90 7a c2 3d
       0.1629658 -0.08283031 -0.019228578 0.09496033
000080 20 5d 92 bb fe 03 5e be 3a 16 24 3e 40 c9 77 3c
       -0.004466668 -0.2168121 0.16024104 0.015123665
000090 ce 6c a4 bd 72 72 20 be b0 74 e4 3c 5e c3 0c 3e
       -0.08028565 -0.15668657 0.027887672 0.13746402
0000a0 de 6c bd 3d 03 2b ed 3d a8 bc 2d 3e 95 ff 68 bd
       0.092492804 0.115804695 0.16966498 -0.056884367
0000b0 21 d3 93 bd 30 d2 cf bc f8 68 2a be 23 c8 c1 3c
       -0.07218004 -0.02536878 -0.16641605 0.023655003
0000c0 9d 46 4e be 73 d0 c5 3c 15 85 26 be e3 db af bd
       -0.20144124 0.024147248 -0.16261704 -0.08586862
0000d0 cd d5 e2 bd 4e e1 28 3e d8 ba 3d be 57 83 46 bd
       -0.110759355 0.16492197 -0.18528306 -0.0484651
0000e0 bc e6 15 be cf e6 1d bd 34 7b fc 3d 35 c7 9a bd
       -0.146388 -0.038550194 0.12328187 -0.07557527
0000f0 57 61 ef 3d 38 4c 10 3e 15 12 01 bd 1d 59 be 3d
       0.11688488 0.14091575 -0.031511385 0.09294341
000100 3c 62 3f bd 05 6d a9 bc 98 03 02 be 3a 74 0a 3e
       -0.046724543 -0.020681867 -0.12696683 0.135209
000110 ce 96 3d be c9 0b 79 be fb 4e 05 3e 63 25 cb 3d
       -0.18514559 -0.24320902 0.1301841 0.0991924
000120 93 25 e1 bd 79 3f 6a be 3d 51 48 be 5c 28 c5 3d
       -0.10993495 -0.22875775 -0.1956224 0.096268386
000130 f2 fe db bd 8f b5 6c be 9b f7 37 3e f9 e4 3d 3e
       -0.10741986 -0.23116134 0.17965548 0.18544377
000140 10 a6 0c 3c b0 be 77 bc 1c 22 03 bd ee eb 15 3e
       0.008584514 -0.015121147 -0.03201495 0.14640781
000150 bd 76 45 be 5c 82 8d 3d e0 3b 15 bc 2c d9 a6 3d
       -0.19283576 0.0690963 -0.009108514 0.08146891
000160 47 09 49 be e4 ec d9 bd d0 53 2b 3d ac 42 54 be
       -0.19632445 -0.106408864 0.041827977 -0.20728558
000170 7e 2b 1c be d8 6e b0 bc f2 e5 2e 3e a0 04 3a 3d
       -0.15250966 -0.02153723 0.17079905 0.045414567
000180 e0 a8 5e 3e dc 81 b9 bd 44 2a 2b bd c1 a9 56 be
       0.21744108 -0.09057972 -0.041788355 -0.20963193
000190 60 f8 78 bd 1c df a8 3d 27 1c e0 bd c0 8b 2d be
       -0.060783744 0.0824568 -0.1094287 -0.16947842
0001a0 94 1a b6 3d 50 f0 ea bc d0 8d 22 bd d0 40 dc 3c
       0.08891788 -0.028679043 -0.039686024 0.026886374
0001b0 e2 dd 2d 3e d8 b2 c0 3d 40 d1 06 3b 9d 0d 63 be
       0.16979173 0.09409112 0.00205715 -0.22173162
0001c0 32 4d cb bd cf ab d4 bd 8c 7a df 3d f0 2b 03 bc
       -0.09926833 -0.103843324 0.10912046 -0.008006081
0001d0 6e 1b 32 be 10 a4 39 be 58 b7 6d 3d 64 b5 ec 3d
       -0.17393276 -0.18128991 0.05803618 0.11558035
0001e0 02 9b d1 bd 35 b8 57 bb 93 f4 30 be 4d 5a 27 3c
       -0.102346435 -0.0032916192 -0.17280798 0.0102144005
0001f0 2c 11 c8 3d af 91 de bc 66 54 0e 3e d8 3e ac 3d
       0.097689 -0.027169077 0.13899383 0.08410424
000200 eb 7a 64 be f7 07 05 be c7 07 4b 3e 73 c2 d6 bd
       -0.22312514 -0.1299132 0.19827186 -0.10486307
000210 ad fc a5 bd d0 5f 2d 3e 59 d3 74 3b 6b b9 57 3e
       -0.08104835 0.16931081 0.0037357418 0.21066825
000220 ef 1a 1d 3e 6d 27 e0 3d ce 48 d1 3a 1e 40 99 3d
       0.15342306 0.1094502 0.0015967132 0.074829325
000230 d7 f0 ac bd a4 40 af bd 56 18 b9 3d fb d8 34 bd
       -0.08444374 -0.08557251 0.09037845 -0.04415224
000240 30 b6 4f 3e 09 51 04 3e 91 0c 25 3e d7 e1 44 3e
       0.20284343 0.12921537 0.16118075 0.19226776
000250 bf d5 ac bc 43 dc d7 3d 4f 32 fe 3d f0 e6 f8 bd
       -0.021098016 0.105400585 0.12411939 -0.12153423
000260 f2 f2 3e be 39 06 9f ba 57 bc 4e 3e 90 e3 f1 bd
       -0.18647364 -0.0012132592 0.20189033 -0.11810982
000270 6a 3b 07 bd 1d f7 d2 bd b0 bd 69 bd 5c bc df 3d
       -0.033015646 -0.10301039 -0.057065666 0.109245986
000280 b4 1b 90 3d b8 d6 7e 3d 38 c8 0d 3e dc 94 40 be
       0.07036534 0.06221649 0.13845909 -0.18806785
000290 8e a7 5f 3e 78 dd ea bc b8 7c f2 3d 8c d0 a8 3d
       0.21841261 -0.028670058 0.118401945 0.08242902
0002a0 a0 af 1b bd 34 ba b3 3d d0 08 26 be 98 20 97 3d
       -0.038009286 0.0877575 -0.16214299 0.07379264
0002b0 20 96 50 3e f4 b1 0e be a0 87 a2 bb c4 74 9f 3d
       0.20369768 -0.13935071 -0.0049600154 0.07785943
0002c0 48 0a 41 bd 61 bb 32 be 64 25 38 3e 01 d2 35 be
       -0.047128946 -0.17454292 0.17983013 -0.17755891
0002d0 d1 be ce 3d 3d cb 68 bd 34 ea cb bd 03 58 f5 3c
       0.10094989 -0.056834448 -0.0995678 0.029949194
0002e0 ea aa 1b be dc c0 6a be a2 aa e2 bc 17 5b 24 3d
       -0.15201917 -0.22925133 -0.027669255 0.040125933
0002f0 ac e4 d3 3c 7d bf 66 be 0d ae 83 bd 2e ff 5f bc
       0.025865875 -0.22533984 -0.06429682 -0.013671679
000300 85 73 10 be 94 f4 e6 3c 14 fc f6 bb 3a f2 16 3d
       -0.14106567 0.028192796 -0.0075373743 0.0368521
000310 d5 6a 77 bc f2 3a 3c 3e b9 6f 88 3d 38 b1 74 3d
       -0.015101154 0.18381861 0.066619344 0.05973932
000320 f1 50 89 3c 31 65 19 be e6 05 55 be e8 34 ed 3c
       0.016762229 -0.14980008 -0.20803031 0.028955892
000330 af 86 6d 3e 65 04 2e 3e 54 c1 43 bd a1 bb 61 3d
       0.23195909 0.16993864 -0.047791794 0.055110577
000340 88 c0 05 3e 65 f2 1c 3e b9 7a 88 bd 63 f3 3b be
       0.13061726 0.15326841 -0.066640325 -0.18354563
000350 0c ba 1f 3e ab fd 21 3e 73 e6 b9 bd 09 89 47 bc
       0.15598315 0.15819423 -0.09077158 -0.012178668
000360 81 2a de bd 0d 0a 87 3d f9 ac c6 3d 27 3b e7 bd
       -0.10847951 0.06593714 0.09700961 -0.11290579
000370 09 e9 7d 3e a5 d0 b2 3d 43 f4 42 bb 11 71 54 3d
       0.24795927 0.08731202 -0.0029747642 0.05186564
000380 69 e6 0d 3e 79 ff 6e bc 1f 36 10 3e de dd 7b be
       0.13857426 -0.014587277 0.14083146 -0.24596354
000390 c5 ae 23 3e a3 86 ba bd 2e 54 ae bd 6e 90 b5 bd
       0.15984638 -0.09107711 -0.0851215 -0.088654384
0003a0 c0 ab 3d be 2f 10 48 3d 4b 3e 44 be d6 b2 99 bd
       -0.18522549 0.04884356 -0.19164388 -0.075048134
0003b0 fb 93 b8 3d d1 8e aa bc cd ce ad bd fe 23 01 bd
       0.090126 -0.020820053 -0.0848671 -0.031528465
0003c0 d5 06 66 3e ae 86 89 bc c4 e3 41 3e 2f 78 18 be
       0.22463544 -0.016787853 0.18934542 -0.14889596
0003d0 c0 c1 14 3e be 86 20 3e 9e fd 08 be 6d 49 2c be
       0.14527035 0.156764 -0.13377997 -0.16824885
0003e0 f3 b6 29 be 3b bf 50 be 69 37 d3 3d 56 59 ed 3d
       -0.16573696 -0.20385449 0.10313303 0.11589305
0003f0 74 0b f0 3d b6 ef 93 3d 6b 34 48 be 5d d5 42 be
       0.117209345 0.072234556 -0.19551246 -0.19026704

fc1.bias f4 [64]
000000 90 5f 01 be 88 c1 25 3d 1a 72 17 be 4e 1a 60 3d
       -0.1263411 0.04046777 -0.1478962 0.054712586
000010 a8 bc 43 3e 6d 96 30 be c7 45 3e bc ac 04 0f be
       0.19114935 -0.17244883 -0.011613316 -0.13966626
000020 e0 d3 b4 3c 34 d2 f9 bd 41 31 2e 3c 8b 9d 51 be
       0.022073686 -0.12198296 0.01063186 -0.20470254
000030 98 6b 4d be 10 8e 33 3e 18 73 ad 3d 60 15 ff 3c
       -0.20060575 0.17534661 0.08469218 0.031138122
000040 08 68 39 3a af 45 0e be a7 bd 07 bb 9c 3c 52 3d
       0.0007072692 -0.1389377 -0.0020712407 0.051327333
000050 3d 49 ad 3c 3a 8e 37 3e bf a2 e1 3d 45 e3 85 3d
       0.021153087 0.17925349 0.110173695 0.06537489
000060 0b 1e d3 bd a1 00 4d bd 2c 53 3b be 20 95 c4 bc
       -0.103084646 -0.050049428 -0.18293446 -0.02399689
000070 a9 0a 59 be 64 7e 28 bd c0 67 ad 3b 9c c5 fc 3d
       -0.21195473 -0.04113616 0.005291909 0.123423785
000080 cb 01 90 bd 87 ae d3 3d 2e cc 5b 3e b3 cd 6a 3e
       -0.07031592 0.10336023 0.21464607 0.2293003
000090 47 72 19 be 50 f3 ed 3c f4 8a 3e bd 1a 31 f9 3d
       -0.14985 0.029046685 -0.046519235 0.121675685
0000a0 21 c2 b1 bd 07 2e 46 be 7d 32 2d bd a8 45 c2 bd
       -0.08679605 -0.19353496 -0.042284478 -0.09485942
0000b0 30 8a 43 be 32 76 31 be 31 21 65 be 86 a7 eb 3d
       -0.19095683 -0.17330244 -0.22375943 0.11506562
0000c0 51 d3 52 be ed 17 bf bc 95 70 5d 3e b6 13 29 3e
       -0.20588423 -0.023326838 0.21624978 0.16511425
0000d0 02 2d 3e be 9c aa 8c bd 1a 28 aa 3d 57 5d 97 3d
       -0.18571857 -0.06868479 0.0830843 0.0739085
0000e0 4f 35 46 be a0 57 5a be d6 ca 36 be 5a 80 50 3e
       -0.19356273 -0.21322489 -0.17850813 0.20361462
0000f0 e4 bd 08 3e f5 45 21 3d 4d d1 0c 3d da 32 03 3d
       0.13353688 0.039373357 0.034379292 0.032030918

fc2.weight f4 [6, 64]
000000 cc 75 72 bd cc a3 5b bd ef 27 a6 bc e7 82 c3 3d
       -0.05919437 -0.053623006 -0.020282714 0.09546452
000010 b4 a8 7d bd 48 3a 11 bd 35 a0 fd bd 3a dc 56 bc
       -0.061928466 -0.035455972 -0.12384073 -0.01311403
000020 b8 7e 61 3d bc ae 67 bd 91 c0 53 bb 2f a2 a8 3c
       0.05505249 -0.056563124 -0.0032310823 0.020585148
000030 81 d7 5e 3d 4e 41 f7 bd 99 82 aa 3d 6c 16 bb 3d
       0.05440474 -0.12073003 0.08325691 0.09135136
000040 a1 d4 82 bd 00 a3 02 3b 7c 0f 8f bc fb 0f 4f bc
       -0.06388212 0.0019933581 -0.017463438 -0.012638087
000050 73 fc 84 3c 30 a7 91 bd 15 0b e4 bd 0b c3 94 3d
       0.016233658 -0.071119666 -0.11134926 0.07263764
000060 3e fe f6 3d 4d fa c2 bd 50 63 ac bd 60 04 b3 3d
       0.120602116 -0.09520397 -0.0841738 0.08741069
000070 ac b2 43 3d 68 68 8a 3d f0 a7 9e 3d 99 ca 82 3d
       0.047777817 0.06758195 0.07746875 0.06386299
000080 a8 ca 3d bd 28 12 b4 3d ec d0 29 3d 21 e6 19 3e
       -0.046335846 0.087925255 0.04145901 0.15029193
000090 cc 02 c6 bd 30 a5 02 bc a8 82 a1 bc 65 f2 35 bd
       -0.09668502 -0.007973954 -0.019715622 -0.04442062
0000a0 f5 76 d2 3d 1e b1 88 3d 28 25 18 3d b7 f8 7d bd
       0.102765955 0.066744074 0.03714481 -0.06200477
0000b0 17 99 75 3a e9 70 94 bd 54 fc f6 bd 03 be e6 bd
       0.00093688205 -0.072480984 -0.120598465 -0.112667106
0000c0 b4 58 cd 3d b4 95 60 bc ef e9 a5 3d 18 46 bf bd
       0.100266844 -0.013707567 0.0810126 -0.09339541
0000d0 00 36 77 3d f6 61 d4 bb 20 a2 a0 bd ea ce 68 3d
       0.060354233 -0.0064814044 -0.07843423 0.056837954
0000e0 38 1f c9 3d fa a9 a6 bd b6 ab c9 3d e0 cf ac 3b
       0.09820408 -0.08137889 0.098472044 0.005273804
0000f0 02 b9 8c bd 8c dd 12 3d 53 30 b2 3d 62 80 ef bd
       -0.06871225 0.035855815 0.08700623 -0.11694409
000100 b4 2e 49 3d e4 b9 ed 3d 8e 33 8d bd e7 86 af 3d
       0.049116805 0.116077214 -0.06894599 0.085706525
000110 94 05 4c 3d c4 d1 64 bd e9 31 34 bd 35 1f 2f bb
       0.049810007 -0.05586411 -0.04399291 -0.0026721482
000120 18 e5 0c 3d 14 34 2b bd d0 86 8a 3d 44 fc d1 bb
       0.03439817 -0.041797712 0.06763995 -0.0064082462
000130 6c 92 90 3d 70 30 00 bd 4c 29 e2 bc 24 5b 2b 3d
       0.07059178 -0.031296194 -0.027607583 0.041834965
000140 c3 49 ef bc b8 22 f1 bc bb ef c7 3d c7 b1 67 bd
       -0.029209977 -0.0294355 0.09762522 -0.056566026
000150 b5 89 be bd 82 b2 f5 bd ba 41 da bc 6d 65 96 3d
       -0.09303609 -0.11996938 -0.026642669 0.07343564
000160 20 ef 85 bd 82 5b 78 bd 13 eb 7d bd 9c f7 24 3d
       -0.0653975 -0.060634144 -0.061991762 0.0402752
000170 20 79 fd bd 00 a5 ac bb e8 9e 9a bc f5 ea 76 bd
       -0.123766184 -0.005268693 -0.0188746 -0.060282666
000180 41 0f e1 bd 9e af 11 bc 3a 95 e9 3d 6d 52 91 bd
       -0.109892376 -0.008891968 0.11405416 -0.070957996
000190 26 ed d0 bd e8 de 7a bd 22 90 89 3d dd 65 cc bd
       -0.102014825 -0.061247736 0.06716944 -0.099803664
0001a0 f7 92 dd bd c7 8e ad bd cc f4 fc bc d7 87 0f 3c
       -0.10819047 -0.08474498 -0.030878447 0.008760414
0001b0 17 cf d7 3d 47 11 8a bd 6a 9d a3 ba 6e e2 80 3b
       0.10537546 -0.06741577 -0.0012482826 0.0039332425
0001c0 1c 3e 54 bd df 16 f0 3c 95 14 92 3d 34 10 6a 3d
       -0.051817045 0.02930778 0.07132832 0.05714436
0001d0 5d a7 0e bc 4e 41 22 bd d4 04 83 3d 6a a9 18 bd
       -0.008706895 -0.03961306 0.06397405 -0.03727094
0001e0 b0 e5 a4 3c 09 1f a7 bd 38 31 90 bd 0c 0d c2 3d
       0.020129055 -0.08160216 -0.07040638 0.09475145
0001f0 16 5c eb 3d 77 cf 4f bd 7c a4 88 3d 9b b6 14 3c
       0.114921734 -0.050734963 0.06671998 0.00907674
000200 28 fe 25 3d ce d9 95 3d 29 6d ad bb a1 e8 3d 3c
       0.040525585 0.073169336 -0.005292554 0.011591108
000210 88 33 95 3d 4c 11 29 3d 82 dd da bd 77 8c 8c bc
       0.072852194 0.04127626 -0.106867805 -0.017156823
000220 6a c1 95 bd 91 61 0d bd 30 b3 6e bd dd 98 23 3d
       -0.073122814 -0.034516875 -0.058276355 0.039940704
000230 bc c1 a7 bd 8c 33 60 bd a8 9e c6 3d 40 ac e7 bd
       -0.08191249 -0.05473666 0.0969823 -0.11312151
000240 01 f9 b3 3b 3e b7 c3 bd d9 a1 b3 3d a5 f6 dd 3d
       0.00549233 -0.09556435 0.08771104 0.10838059
000250 da c7 ca bd 80 ab 38 bb fb b9 13 be 96 21 de bd
       -0.099014 -0.0028178394 -0.14426415 -0.1084625
000260 d4 03 29 3d 84 ed 81 bd 46 d7 17 bd dc 0a be bd
       0.041263416 -0.06344131 -0.037070535 -0.09279415
000270 ce 3c c8 3d 30 04 5c bc 80 f6 c6 bd be ab 03 bb
       0.097772226 -0.013428733 -0.09714985 -0.002009138
000280 34 aa cd 3d 12 e7 f0 bd 9c 05 4f 3d 0d 2f d3 bd
       0.10042229 -0.11762823 0.05054246 -0.103117086
000290 3d d2 d9 bc c0 c0 4a 3d 08 4d bb bd 63 1f e0 3d
       -0.026589507 0.049500227 -0.09145552 0.109434865
0002a0 ce f4 80 bc 4f a9 e0 bd fc 3c 46 bc 57 cf 89 3c
       -0.015741732 -0.10969793 -0.012099501 0.0168225
0002b0 67 a6 2f 3b 03 7a fa bc 5e a4 0a 3c 63 af 07 be
       0.0026802064 -0.030575758 0.00846204 -0.13250498
0002c0 ee 07 81 3d 43 e9 d4 bd 44 21 33 3d c4 30 2e 3d
       0.063003406 -0.10396054 0.043732896 0.042526975
0002d0 e0 89 f7 3d 53 71 9f 3d 72 9b 8f bd 03 b8 9c 3d
       0.120868444 0.07785287 -0.07012071 0.07652285
0002e0 10 49 e0 bd 20 a9 51 37 c8 35 b6 3d 40 c0 ec 3c
       -0.109514356 1.2496748e-05 0.08896977 0.028900266
0002f0 e2 4e 94 3d 98 cc cb bd 85 a0 eb bd 01 fe 50 bd
       0.07241608 -0.099511325 -0.11505226 -0.051023487
000300 2e 24 ac bd 0c 14 a5 3d ab ec 99 bd 29 f1 01 3d
       -0.08405338 0.08060464 -0.07515844 0.03172413
000310 60 f6 19 bc a0 49 14 3d bd 87 05 be 9a 15 e9 bc
       -0.009397119 0.036203027 -0.13040061 -0.028452683
000320 28 02 a5 3c 75 a1 3c 3d b4 e1 b4 3d b9 b7 5c 3d
       0.02014263 0.046052415 0.08832112 0.05388615
000330 ce b0 80 3d a0 8d b1 bb 2b 63 a7 3d 90 6d 62 3d
       0.06283723 -0.0054184943 0.08173212 0.05528027
000340 8b 5a 56 bd 10 4c 08 3c 37 b5 51 3c d3 aa c3 bd
       -0.052332442 0.008318916 0.012799553 -0.095540665
000350 ae 7a e9 bd 9a d9 b5 bd 4f 5d b1 3c a1 d5 60 bd
       -0.114003524 -0.08879395 0.021650938 -0.054891232
000360 46 cb f0 bd 79 a4 d2 bd c8 80 d3 bb 70 01 6f bd
       -0.11757521 -0.10285277 -0.006454561 -0.05835098
000370 e0 d2 77 3c 70 fd 8b 3c 80 85 ab 3d 19 ab 31 3c
       0.01512596 0.017088622 0.083750725 0.0108440155
000380 3e 7b 92 3d 90 b5 09 be 28 b3 cf 3c 31 ce 19 be
       0.07152413 -0.13448167 0.025353983 -0.15020062
000390 08 20 e8 bd 50 41 31 3c 60 0d 18 3c 27 f3 d3 bd
       -0.113342345 0.010818794 0.009280533 -0.10349112
0003a0 d6 17 ec bd 03 6b 19 3d e9 8e e1 3d e8 58 7b bc
       -0.11527984 0.03745557 0.11013586 -0.015341021
0003b0 12 fb 67 3c bf a5 1b be 91 fd 9a 3d 50 9e d8 bd
       0.014158981 -0.15199946 0.07567895 -0.10577071
0003c0 fa 89 80 3d 69 dd a9 3d ae 55 fa bc 40 3c 59 bc
       0.06276317 0.08294184 -0.030558433 -0.013258994
0003d0 f8 89 b0 bd 51 01 ea bc f5 01 19 be 90 2b 71 3c
       -0.086200655 -0.02856508 -0.14942153 0.014719859
0003e0 30 8f e0 bd 70 8d 8d 3d 60 4b e7 bb 00 25 6d 3b
       -0.10964811 0.06911743 -0.007058546 0.0036185384
0003f0 4e 5e bd 3d 28 62 76 3c e5 07 81 bd 0f 72 ca bd
       0.09246503 0.015038051 -0.06300334 -0.09885036

fc2.bias f4 [6]
000000 35 da 3d bd b0 a4 8e bd 69 77 11 3d 1a be 4f bd
       -0.046350677 -0.069650054 0.03551427 -0.050718404
000010 26 e1 0d be 9a b1 97 bd
       -0.13855419 -0.07406922
