models/lstm_fault_model.pth (torch_old, 126755 bytes, 6 tensors)

lstm.weight_ih_l0 f4 [256, 25]
000000 d0 ae 70 bc 84 47 62 bd ac 4c ae bd e7 a4 0d 3d
       -0.014690116 -0.055243984 -0.08510718 0.03458109
000010 08 98 72 3d f0 a6 d1 3d 98 28 21 3e 90 11 a1 3d
       0.05922702 0.10236919 0.15738142 0.07864678
000020 8e f5 c2 bd ba 9e 9a 3d fa b9 b6 3d 2c fe 76 3d
       -0.09519492 0.07549806 0.08922191 0.06030099
000030 c0 1f 49 3d ac 9a 2e 3d 9c e0 2b 3d cc e1 2e 3d
       0.049102545 0.042627975 0.04196225 0.042695805
000040 34 3e e3 3d 93 0b 01 3e c8 cf 93 bd 64 f2 6a 3d
       0.11095849 0.12602071 -0.072173655 0.057360068
000050 3c 28 78 3d c5 4c 0d 3e 00 42 8f ba b8 1f ea bc
       0.060585245 0.13798817 -0.0010929704 -0.028579578
000060 50 30 ea bc 9a 62 f4 bd 68 7e 70 bd 00 a4 bf b9
       -0.02858749 -0.11932869 -0.0587143 -0.00036552548
000070 3d 79 03 3e 00 c2 53 3b 8a 4c f1 bd 66 68 fc 3d
       0.12839217 0.0032311678 -0.11782177 0.123246
000080 7c 02 0b 3d a8 76 f8 3c b0 1f 3d 3c 68 53 7c 3d
       0.033937916 0.030330017 0.011543199 0.06160298
000090 d6 ce a9 3d ae ab 99 bd 78 5a f8 bc 90 76 8b bc
       0.08291404 -0.075034484 -0.030316576 -0.017024308
0000a0 fa 8c 02 3d 22 46 cc 3d 2e 1f 73 bc ba 32 99 bd
       0.031872727 0.09974314 -0.014838977 -0.074803784
0000b0 dc 3c 9a bd b8 b8 0f 3d 93 49 89 3d 40 f7 01 bb
       -0.07531139 0.03508827 0.06703486 -0.001983121
0000c0 9e 69 d9 bd 6c 50 f6 bd 3c 30 ca 3d de f2 ca 3d
       -0.10615848 -0.12027058 0.09872481 0.099096045
0000d0 60 02 b0 3c 8a c0 22 ba 08 15 f8 bd c4 57 d1 bd
       0.021485507 -0.00062085 -0.121133864 -0.10221818
0000e0 fa ab 4b bb 78 91 1a 3d 80 b1 c0 ba 8a b6 b9 3d
       -0.0031077848 0.037736386 -0.0014701337 0.0906802
0000f0 be 0f d5 bd 68 7a ec 3c 82 46 83 3d b4 1c 7c bd
       -0.10403393 0.028866962 0.06409933 -0.06155081
000100 ce bc ac bd b4 b5 82 3d bc 66 43 bd c2 23 7c 3d
       -0.08434449 0.06382313 -0.047705397 0.06155754
000110 5e 94 9a 3d a0 c5 c6 3b 44 ae fe bd 08 f4 cf 3d
       0.0754783 0.006066039 -0.12435582 0.10153967
000120 80 ad c7 3a 80 c4 ca ba c8 85 86 3c 8a 09 d1 3d
       0.0015234202 -0.0015469939 0.016421214 0.102068976
000130 5e 6a 93 bd d8 6e cc bc 1b 8b 4b 3d be c3 b5 3d
       -0.07198022 -0.024955198 0.04969321 0.088752255
000140 9a 2a e5 bd d6 aa 2d 3e 68 7e 85 3c 6e da bc 3d
       -0.11189766 0.169597 0.016295627 0.0922135
000150 88 74 0f 3d 98 a6 ba 3c 40 4f bd bb 32 73 e2 3d
       0.035023242 0.022784516 -0.0057772696 0.11057128
000160 d6 3d ea bd 62 30 8f bd 8b 2b 90 3c 40 e9 a7 3b
       -0.114375755 -0.0699165 0.017598888 0.005124241
000170 e0 c3 1f 3d d6 e5 d7 bd 00 a0 27 b9 ea 8b f0 bd
       0.03900516 -0.105418846 -0.00015985966 -0.117454365
000180 ac 3e 0b 3e 72 41 d6 3d 24 3b 34 3d 08 87 b3 3d
       0.13598126 0.104617015 0.044001713 0.087659895
000190 e0 5c 2a bc a8 7b 07 3d e0 d5 d7 3b 0c 8b e7 bc
       -0.01039812 0.033076912 0.006586775 -0.028264545
0001a0 bc c3 93 3d e0 22 9c 3d d9 97 00 3d 24 01 8a 3d
       0.07215068 0.076238394 0.031394813 0.06738499
0001b0 b4 c0 b6 3d fa 5d dd 3d ca ef f0 bd 54 73 3b 3d
       0.08923474 0.1080894 -0.11764486 0.045764282
0001c0 bc ed c3 bd 2c bc 61 3d 7e 04 b7 bd 81 d3 9a bc
       -0.095668286 0.055111095 -0.08936404 -0.018899681
0001d0 18 c8 8f 3d 54 82 97 3d fa a6 c1 3d e6 ee 87 bd
       0.07020587 0.07397905 0.094556764 -0.06637363
0001e0 0a 47 b3 3d 4a b5 08 3d 00 fe 85 3c 38 3d 95 bc
       0.08753784 0.033376016 0.016356468 -0.018217668
0001f0 60 15 44 3c 80 a3 d2 ba c8 18 ef 3d c2 11 84 bd
       0.011967987 -0.0016070455 0.116746485 -0.064486995
000200 b2 d0 58 3d e0 35 b4 3d 40 22 95 3b b1 a8 51 bd
       0.052933402 0.08799338 0.004551202 -0.051186267
000210 58 99 ea 3c ac c7 14 3d 20 3b 51 3d 0c 77 53 3d
       0.028637573 0.036323234 0.051081777 0.051627204
000220 34 ad e0 3d a4 03 23 bd 78 48 4e bd 18 cd 7d 3d
       0.10970536 -0.039798394 -0.05036208 0.06196317
000230 67 3d 7f 3c 34 31 44 3d 58 8a 4d bd 10 d8 2c bd
       0.015578604 0.047898486 -0.050180763 -0.04219824
000240 08 bd d1 bd 8c b3 4c 3d 0a cb 81 3d 22 92 ed 3d
       -0.10241133 0.049975917 0.06337555 0.11600138
000250 c8 c0 d1 bc e2 3c cb bd 2e 58 a8 bd 10 26 21 3c
       -0.02560462 -0.09923722 -0.08219944 0.009835735
000260 44 85 ce bd 9f d1 96 bd 48 49 e8 bd c4 a4 3f bd
       -0.10084012 -0.07364201 -0.11342102 -0.046787992
000270 78 29 b5 bd 80 05 f9 bc 7e 80 d9 3d 92 31 b9 3d
       -0.088458 -0.03039813 0.10620211 0.09042658
000280 80 82 55 bd 40 3a 7d bc de 65 9b 3d c0 34 b8 3c
       -0.052126408 -0.015455782 0.07587789 0.02248609
000290 00 e6 13 ba 89 87 a9 bc 60 21 ee bc 60 12 1a bd
       -0.00056418777 -0.020694511 -0.029068649 -0.03761518
0002a0 b0 dd 2e 3c 74 98 21 3d ba a0 f1 3d 72 78 c8 bd
       0.010672972 0.03945203 0.11798234 -0.09788598
0002b0 a8 95 9d 3c f0 34 4b 3d 06 81 c1 bd 68 75 45 3d
       0.0192364 0.049611032 -0.094484374 0.04820767
0002c0 08 24 bb bd 36 ed fa bd 40 a6 de 3d 36 5b ea 3d
       -0.09137732 -0.12252276 0.108715534 0.11443178
0002d0 90 a5 31 bc 79 45 71 3d 88 60 e3 3c 2c 4b 70 bd
       -0.010842696 0.058904145 0.02775599 -0.05866544
0002e0 00 2a 99 bd 48 a4 37 3d 7e 39 9c 3d 80 f7 ae 3c
       -0.07478714 0.044834405 0.07628153 0.021358252
0002f0 08 47 d8 bd 7a 75 ab 3d f8 b7 9b bd 00 41 96 bd
       -0.10560423 0.08372016 -0.07603449 -0.073366165
000300 a6 ab d3 3d 30 1a 5c bd 60 cc 9b 3b 94 cb ee 3d
       0.10335474 -0.05373591 0.004754588 0.11659923
000310 3e 3a a6 bd 84 59 c9 3d 54 bd 79 bd b8 1e 01 bd
       -0.081165776 0.09831527 -0.060971573 -0.031523436
000320 fc ec af 3d 1c a0 45 bd 30 b9 2f 3d cc e6 1d 3e
       0.08590123 -0.048248395 0.042901218 0.15420073
000330 ce cb f9 bd 0c a3 80 bd 78 e6 a8 3d 84 1a 52 bd
       -0.12197076 -0.06281099 0.082470834 -0.05129482
000340 f0 a7 c4 bc 68 c1 a0 3d 28 31 fd bd 1c b9 e8 3d
       -0.02400586 0.07849389 -0.123628914 0.11363432
000350 b0 ef 09 3d ac 44 08 bd a2 a0 b2 3d 8c ec 19 3e
       0.03367585 -0.033268616 0.087220445 0.15031642
000360 b0 ee 94 3d ff 76 67 3d d4 03 be 3d 98 df 4f bd
       0.072720885 0.056509968 0.09278074 -0.050750345
000370 4c 75 67 3d d4 5f 1b 3e fc 83 1f 3d 56 13 fa bd
       0.056508347 0.15173274 0.03894423 -0.12210719
000380 02 be ad bd 40 3e 02 3d c0 75 15 bd 40 ba b3 bc
       -0.08483507 0.031797647 -0.03648925 -0.021939397
000390 0c ca 8b bd ce 24 cf 3d aa b8 a6 3d cf 97 3f bd
       -0.06825647 0.10114442 0.081406906 -0.046775635
0003a0 00 f8 20 b9 b0 fa 7b bd 30 92 a6 3d dc 3f 0c bd
       -0.00015351176 -0.06151837 0.08133352 -0.03424059
0003b0 66 3a e8 3d a0 2d 91 bb 24 f2 d4 bd 88 ea 6f bd
       0.113392636 -0.0044304878 -0.10397747 -0.058573276
0003c0 07 e4 db 3d 1c 34 1c 3d b2 54 7c 3d 6c 2c 7b bd
       0.10736852 0.038135633 0.06160421 -0.06132166
0003d0 88 3a c1 3d 48 21 5b 3d 9c fc 8b 3d c0 f5 de bc
       0.09434992 0.053498536 0.06835291 -0.027216792
0003e0 3a 14 d5 bd fc e6 a2 bd 46 cc c0 3d 9e 7b b1 bd
       -0.104042485 -0.07954213 0.09413962 -0.08666156
0003f0 80 80 41 3d 5f a7 1b 3e 04 7d a0 3d b0 3b c5 3c
       0.047241688 0.15200566 0.07836345 0.024076313

lstm.weight_hh_l0 f4 [256, 64]
000000 8e 12 84 3d 34 23 5e 3d 90 24 b3 3c ce f1 87 bd
       0.064488515 0.05423279 0.02186802 -0.066379175
000010 68 b9 54 3d 88 50 0c 3d 6c 41 1a 3d a6 12 ca 3d
       0.05193463 0.034256488 0.037660047 0.09866838
000020 64 a8 f6 3d 4e 83 f9 bd b8 a4 01 3d e8 11 a2 bc
       0.12043837 -0.121832475 0.03165123 -0.019783929
000030 6a 20 ae bd 02 63 e5 3d e0 5c 61 bd b0 09 b4 3c
       -0.08502276 0.11200525 -0.055020213 0.021977276
000040 d8 8d 08 3d f6 61 b8 bd c6 80 e0 bd fa ce bc bd
       0.033338398 -0.090030596 -0.109620616 -0.09219165
000050 30 fa 32 bd 98 14 e6 3d 4c 02 7a bd 4c 90 7e bd
       -0.04369563 0.11234397 -0.061037347 -0.06214933
000060 c4 6d 94 bd 00 88 61 3d 78 cb 49 3d c8 5d da bd
       -0.07247499 0.05506134 0.04926631 -0.106624186
000070 16 9b d6 bd ae 50 da 3d 74 63 5a 3d 10 10 75 3c
       -0.10478799 0.1065992 0.053317502 0.014957443
000080 f0 7e 72 bc 2e ac 97 bd 34 ef f0 bd 68 4d fc bd
       -0.014800772 -0.074058875 -0.117643744 -0.123194516
000090 f6 a9 b6 bd b0 e7 18 3c 00 98 f8 ba b0 1c 64 3d
       -0.08919136 0.009332582 -0.0018966198 0.05569142
0000a0 40 6e f0 bd 80 7b 11 3d 40 d0 4b bd 48 a9 31 3d
       -0.117397785 0.03551817 -0.04975915 0.04337433
0000b0 d4 1f 62 3d 0a 25 f3 bd 76 1b e3 bd 58 c0 58 bd
       0.055206135 -0.11872299 -0.11089222 -0.05291781
0000c0 38 98 c7 3d ce e5 9a bd 30 a9 41 bc 20 6a 30 bc
       0.0974583 -0.07563363 -0.011820123 -0.01076749
0000d0 24 4e fc bd c0 f3 43 bc b8 e4 87 bc e0 af ba 3d
       -0.12319592 -0.01195997 -0.016588554 0.09115577
0000e0 bc fd bd 3d 0a e4 a6 bd 10 fb 0b bc f0 e8 80 3c
       0.092769116 -0.08148964 -0.008543745 0.015736073
0000f0 8c 97 8b 3d 8a c5 a8 3d 88 1d ef 3d c0 4d c9 3b
       0.06816015 0.082408026 0.116755545 0.0061433017
000100 26 5e d1 bd f0 2b 13 3d b0 07 2d 3d a0 3d 33 3c
       -0.102230355 0.035930574 0.04224366 0.0109399855
000110 74 26 03 bd a4 28 f3 3d d8 41 82 bc 44 cf 41 3d
       -0.032019094 0.11872986 -0.015900537 0.047316805
000120 b0 71 20 bc 00 af fc 3a 00 15 75 bb 28 2b bc bd
       -0.00979273 0.0019278228 -0.003739655 -0.09187919
000130 00 83 61 3d 84 01 4e bd c8 2d 35 bd 0c be d6 3d
       0.055056572 -0.050294414 -0.044233114 0.10485467
000140 38 3e 67 bd 34 4d fc bd 88 a1 a7 3d dc 2f ba bd
       -0.05645582 -0.12319413 0.081851065 -0.0909116
000150 ce a5 87 3d c4 ba f4 bd 94 67 f6 bd c6 e9 95 3d
       0.066234216 -0.11949685 -0.12031475 0.07319979
000160 18 41 79 3d dc a9 eb 3d 70 19 f0 bc 5c 42 7a 3d
       0.060853094 0.115070075 -0.029309005 0.06109844
000170 5e 35 a7 bd 98 a2 c8 bc 10 04 58 3d ec f9 83 bd
       -0.08164476 -0.024491593 0.05273825 -0.06444153
000180 38 a6 8a 3c 20 b1 ea 3c fc 7e 49 bd 48 74 81 3c
       0.016924962 0.028648913 -0.049193367 0.015802518
000190 e4 c3 39 3d 80 23 d0 bb b0 1b 85 3d 60 9e 15 3c
       0.04535283 -0.006351888 0.064994216 0.009131998
0001a0 3a 42 f8 3d 64 59 72 bd 18 4f d4 bd 00 70 12 38
       0.12122007 -0.05916728 -0.103666484 3.491342e-05
0001b0 94 78 a3 bd c0 f5 eb bd e8 43 e3 3d b8 a0 e5 bd
       -0.07981983 -0.115214825 0.110969365 -0.11212295
0001c0 82 26 fe 3d b4 9c 1d 3d 48 f7 ec bc f8 ab a1 3d
       0.124096885 0.038479522 -0.028926507 0.078941286
0001d0 d8 16 1e 3d 3c b4 82 3d 80 14 10 bd ce b1 9f bd
       0.038596004 0.06382033 -0.0351758 -0.077975854
0001e0 bc e8 b3 3d de ba d2 3d 80 03 d4 bd a2 53 98 bd
       0.08784625 0.10289548 -0.1035223 -0.07437827
0001f0 00 28 fe 3d 12 78 dc bd 88 8e af bc 48 55 3d bd
       0.12409973 -0.10765089 -0.021430269 -0.04622391
000200 1e 19 98 bd a0 56 9a bc cc ad ba 3d 70 0c 51 bd
       -0.07426666 -0.018840134 0.091151804 -0.051037252
000210 84 e1 1e bd d8 dc 01 bd b0 f4 00 bd 70 57 8b 3c
       -0.038789287 -0.031704754 -0.031483352 0.017009467
000220 2c d2 4c 3d 44 2b e9 bd 4a 97 cd bd a0 40 71 bc
       0.050005123 -0.113852054 -0.10038622 -0.01472488
000230 e8 79 7e 3d 20 e2 f8 bb 58 c4 90 3c 00 06 1c bb
       0.062127978 -0.0075953156 0.017671749 -0.0023807287
000240 08 11 33 bd 08 91 f0 3d 00 27 39 bd 50 d9 60 bc
       -0.043717414 0.117464125 -0.04520321 -0.013723686
000250 d4 c8 0d 3d 7e fe ff 3d 5a 23 e3 3d 76 b8 b9 bd
       0.034615353 0.124997124 0.11090727 -0.09068386
000260 00 2e af 3d cc 33 c0 bd 70 00 d6 bc b0 ad e1 bd
       0.08553696 -0.093848795 -0.026123255 -0.110194564
000270 50 fd 06 3d a6 94 b7 3d 08 d3 b6 bc e4 48 d2 3d
       0.03295642 0.08963899 -0.022317424 0.10267809
000280 66 2a b1 3d aa b2 f8 bd f6 6c e9 bd 98 d6 92 bd
       0.08650665 -0.121434525 -0.11397736 -0.07169837
000290 e4 1c c3 bd 3c a4 0e bd 10 55 c2 bc 80 6d 03 bc
       -0.09526995 -0.034824595 -0.023722202 -0.008021712
0002a0 34 b6 a4 3d f0 7c 79 3c 36 4a c8 3d 60 f5 2d bd
       0.08042565 0.015227541 0.097797796 -0.042470336
0002b0 30 4a aa bd 8c 0f 56 3d 2c 1e 2b 3d d8 b5 a8 bd
       -0.083149314 0.05226092 0.04177682 -0.08237809
0002c0 bc f8 80 bd a6 e2 f6 3d 00 a2 09 bc c4 5c f1 3d
       -0.06297442 0.120549485 -0.00840044 0.11785272
0002d0 d8 c3 ae bd 2c e0 f5 3d ae cf cd 3d 4e 62 a6 bd
       -0.08533448 0.12005648 0.100493774 -0.08124219
0002e0 d2 4b f3 bd 8e af 9b 3d 78 57 8f bd d0 ac 54 bc
       -0.11879696 0.07601844 -0.06999105 -0.012980655
0002f0 5c da 0b bd a0 c2 3b bd fc a1 e8 bd b4 85 8f bd
       -0.03414379 -0.045839906 -0.11359021 -0.07007924
000300 e0 c7 f6 bb 10 40 90 bc b8 ad c4 bd 64 d7 3e bd
       -0.007531151 -0.017608672 -0.09603447 -0.04659213
000310 00 a4 4c ba 7a 07 d2 bd 38 84 ba bd b8 5d ba 3c
       -0.00078064203 -0.10255332 -0.0910725 0.022749767
000320 36 18 a7 3d 00 25 b4 ba f6 50 ec 3d f8 ce c7 bd
       0.08158915 -0.0013743937 0.115388796 -0.09756273
000330 38 b4 98 bd 08 b3 2e 3d d4 8f 88 3d 06 81 8b bd
       -0.07456249 0.042651206 0.06668058 -0.06811719
000340 20 a5 93 3d cc 99 38 bd 9e a9 92 bd 80 61 ad bd
       0.072092295 -0.045068547 -0.07161258 -0.08465862
000350 10 b6 26 bc e8 f8 91 bd 00 f3 ea bd 5e 5d af 3d
       -0.010175243 -0.07127553 -0.1147213 0.0856273
000360 58 a2 42 3d ac 8f 49 3d 42 07 d8 3d d4 75 f7 bd
       0.047518104 0.04920928 0.10548259 -0.12083021
000370 74 83 3e 3d 38 a2 29 bd 88 d3 bc bc 4c d8 56 bd
       0.046512082 -0.04141447 -0.023050085 -0.05245237
000380 f0 bd d3 bc 54 1e bd 3d 5a 98 a9 3d c2 2b 9d bd
       -0.025847405 0.092343 0.08281012 -0.07674362
000390 f2 dc a1 bd 04 50 c3 bd ea 76 a1 3d fc 0c 12 bd
       -0.0790347 -0.09536746 0.07884009 -0.035656914
0003a0 f8 0c b5 3c f8 15 cb 3d d8 85 ee bc 2c 68 59 3d
       0.02210091 0.099162996 -0.029116556 0.05307786
0003b0 0e 47 a0 3d ea 11 b7 bd f8 dd 2e bd 60 53 89 bc
       0.078260526 -0.08938964 -0.042692155 -0.01676339
0003c0 94 ef f6 bd e8 e4 41 3d 40 65 d2 3d c2 21 9a 3d
       -0.12057415 0.047337443 0.10273218 0.0752597
0003d0 80 6f 36 bd fc 97 c7 bd 20 46 c1 bd 78 d7 14 3d
       -0.04453993 -0.097457856 -0.094372034 0.0363383
0003e0 0c 7f 2b bd 2e fb b6 3d 0a e4 df bd 30 86 a5 3c
       -0.04186921 0.089346275 -0.10932167 0.020205587
0003f0 ec fb c1 bd bc 8f eb 3d e0 52 45 bd 4e 8c eb 3d
       -0.094718784 0.115020245 -0.04817474 0.1150137

lstm.bias_ih_l0 f4 [256]
000000 4a 51 05 3e b7 49 4c bd be d2 84 bd 80 44 27 3e
       0.1301929 -0.049874987 -0.064855084 0.16334724
000010 5d e3 7f 3d 6a ba 10 3c b6 af 08 3e ea 1f f9 3d
       0.06247269 0.008833507 0.13348278 0.1216429
000020 b2 82 4c bd df 13 fc 3d 95 3e 2f bd cc b1 d4 3d
       -0.04992933 0.123084776 -0.042784292 0.103854746
000030 20 fd 4b bd 2c 0b 1a bd f3 66 99 3d 11 64 c5 bd
       -0.049801946 -0.03760831 0.07490339 -0.09638227
000040 1b 80 1d 3e 65 61 bb 3d 3e b4 dd 3d 12 bd be 3c
       0.153809 0.09149436 0.10825394 0.023283515
000050 51 e5 f3 3c 81 2e 9e bd 26 33 5e bd 0d 10 5c 3d
       0.029772433 -0.07723714 -0.054247998 0.053726245
000060 00 59 f6 bb 38 60 dc 3d 45 85 22 3e 07 ae f0 3d
       -0.007517934 0.1076054 0.15871151 0.11751943
000070 16 ca 66 3b 00 48 a4 b7 b3 76 88 bc 22 b4 d7 bc
       0.0035215667 -1.9583851e-05 -0.016658163 -0.026331011
000080 fa b6 5b bd 2b b4 3b bc a8 67 73 bd 14 0b 00 bc
       -0.053641297 -0.01145653 -0.059425026 -0.007815141
000090 dc 59 8d 3d 1a 8f 36 3e 9e fe 27 3b 28 85 00 3d
       0.06901905 0.17828026 0.0025633941 0.031376988
0000a0 4d 97 d8 bc 16 96 f9 3d 48 51 e1 3c 25 b1 50 3d
       -0.026439333 0.1218683 0.027504578 0.05095019
0000b0 59 ab 78 3c 0f 5c e4 3d 09 7d df 3c bb e1 00 bd
       0.015177571 0.11150371 0.027281301 -0.031465273
0000c0 54 0e 03 3e f2 ce 79 bd 72 94 2c 3c 07 fc 15 3e
       0.12798434 -0.060988374 0.010533439 0.14646922
0000d0 01 e8 42 bc cd 85 c2 bc 2b 9d 13 3d c5 db 3c 3d
       -0.011896134 -0.023745442 0.03603856 0.046108026
0000e0 14 c4 3d 3e a1 08 28 3e 33 b9 b3 3d b0 a5 17 3e
       0.18531829 0.16409542 0.08775558 0.14809299
0000f0 86 63 0d 3d 00 07 a1 3d 8a b5 40 3d 7c 92 3a bd
       0.03451874 0.07862663 0.04704813 -0.045549855
000100 40 8d 28 bd 74 6f f5 3d 92 05 d9 bd cc 16 0d 3d
       -0.04115033 0.119841486 -0.105967656 0.03444557
000110 e0 b6 b7 3c a8 26 d9 3d 98 0d 86 3d e4 d9 d4 3d
       0.022426069 0.10603076 0.065455616 0.10393122
000120 5a 9d cf 3d 8c 23 6a bd 96 ea e8 bd 48 d9 d3 bc
       0.10137434 -0.057162806 -0.11372869 -0.025860444
000130 ec 1a a3 bd 4c 35 74 3d 80 80 4a 3b 02 77 b0 3d
       -0.07964119 0.05962114 0.0030899346 0.08616449
000140 54 7c c6 3d b0 49 d2 bd 00 7d 49 3d d8 4d c8 bc
       0.096916825 -0.10267961 0.049191475 -0.024451181
000150 40 88 ab bd 1a 97 ff bd 9a ee d6 3d 66 4e fd bd
       -0.08375597 -0.12479992 0.104947284 -0.12368469
000160 06 21 f1 3d 0e d5 93 3d 40 e1 4f 3d 74 9d 12 bd
       0.11773877 0.07218371 0.050751925 -0.03579469
000170 aa ac a1 bd 20 03 bb 3c 90 3d 83 3d f8 4a c7 bd
       -0.07894261 0.022828639 0.064082265 -0.09731096
000180 f4 1d f7 3d 18 16 90 3d 28 e2 03 3d 08 0f 56 3d
       0.1206626 0.07035464 0.0321981 0.05226043
000190 7c c9 6d bd 6e 30 a3 3d 48 b4 aa bc 80 0a 8f 3c
       -0.05805348 0.079682216 -0.020837918 0.017461061
0001a0 50 8b 51 3c 8a 56 86 bd 28 ab 0f bd 82 88 ca 3d
       0.012789562 -0.06559475 -0.035075337 0.09889318
0001b0 e0 03 ab bd 00 96 f0 3c c0 00 17 bc 86 11 95 3d
       -0.083503485 0.0293684 -0.009216487 0.07278733
0001c0 40 4e 3a bd c0 78 b7 bb e8 7e ca 3d ae 64 a4 3d
       -0.04548478 -0.0055991113 0.09887487 0.080270156
0001d0 48 9e d9 bd 62 01 b1 3d 64 2b f2 bd b2 27 d6 bd
       -0.10625893 0.08642842 -0.11824682 -0.1045679
0001e0 04 a3 66 3d bc e7 52 bd 2c de f0 bd 9a c6 95 bd
       0.056307808 -0.05149053 -0.11761126 -0.07313271
0001f0 56 ba 9f bd 60 93 d3 bc 14 09 4c 3d a8 af dc bc
       -0.07799213 -0.02582711 0.049813345 -0.026939228
000200 57 56 21 be 7d 19 f5 3d ee 05 02 3e 87 77 97 3d
       -0.15755592 0.11967752 0.12697574 0.07395845
000210 68 2a 29 3e e2 27 46 bd f2 58 c3 3d 9b 0d b5 3d
       0.16520083 -0.04837788 0.09538449 0.08840486
000220 03 e6 1e 3e c5 db ec bd 4b 5f 28 3e 09 c2 88 bd
       0.1551743 -0.11565355 0.16442601 -0.06677634
000230 ea e9 f5 3d 8d 97 8b bd d3 ae 14 3e 94 d2 16 bd
       0.12007506 -0.068160154 0.14519815 -0.036821917
000240 cc e8 a0 bc ab 6e 3c 3d 1d a9 ee bd 15 94 16 3e
       -0.019642256 0.04600398 -0.116533495 0.14704926
000250 e2 d9 21 3e a7 36 5c 3d a6 c8 35 3e 3a 42 fe 3c
       0.15805772 0.053763058 0.17752323 0.031037439
000260 fe 98 88 3d 52 86 59 bd 75 62 08 3e f8 8e 0e be
       0.06669806 -0.053106613 0.13318808 -0.13921726
000270 35 7c f3 3d c5 54 f5 3a d6 c2 09 3e bc 2f 05 be
       0.11888925 0.001871728 0.1345323 -0.1300649
000280 cf 60 cf 3d 75 ca 5d 3d fe 2c 1c be 2d 6a 25 be
       0.10125887 0.054148156 -0.15251538 -0.16153784
000290 46 15 cf bc 14 90 3b be ba 51 29 be ed 0a cb bd
       -0.025278699 -0.1831668 -0.16535082 -0.09914193
0002a0 52 64 4e bd 28 8a 80 3d 05 69 80 3d fe e1 34 3e
       -0.05038864 0.06276351 0.06270031 0.17664334
0002b0 f8 0e 47 bd 14 1f 99 bd 02 15 36 bb 4f 04 32 be
       -0.04859826 -0.07476631 -0.0027783518 -0.17384456
0002c0 ad f9 d8 bc 99 80 3a bd 80 98 15 bc fb ab 09 3e
       -0.026486242 -0.045532797 -0.009130597 0.13444512
0002d0 86 cd e5 3c 0f 4a 8f bd a4 f5 42 bd 68 50 93 3d
       0.028052103 -0.069965474 -0.047597542 0.07193071
0002e0 22 38 bb 3c 6c 7a 21 be 35 87 39 be 04 ec 78 3d
       0.022853915 -0.15769356 -0.18117984 0.060771957
0002f0 75 ec ef bd f4 d5 0d 3e 56 c4 51 3d 39 be 1d bc
       -0.117150225 0.13851148 0.05121263 -0.009627872
000300 b6 4e 47 3d 2d 07 cb 3d 8f b7 d2 bd 1e d2 11 3d
       0.04865905 0.09913478 -0.10288917 0.035600774
000310 88 83 cb 3d 3f 89 3f bd 28 dc 99 3d dc 02 dc ba
       0.09937197 -0.046761747 0.075126946 -0.001678552
000320 af 33 81 3d 7c 71 1b 3c 2b 74 bf bc 62 38 46 3b
       0.06308686 0.009487506 -0.023370823 0.003024601
000330 41 18 16 3d c2 a6 e2 3d bd 91 b6 3d 24 09 b1 bd
       0.036644224 0.11066963 0.08914516 -0.086443216
000340 75 2e e7 3d 5c 77 64 3b 52 ce 05 3d 64 00 02 3e
       0.11288158 0.0034861183 0.032667466 0.12695462
000350 4b 0b ea 3d fb 56 a8 3d 29 7f 3f bc 4f eb 8a 3d
       0.11427935 0.08219715 -0.011688032 0.06783163
000360 68 4f 97 3d 3a 13 0c bd 1c 44 b4 3d 54 58 4b bc
       0.073881924 -0.034198023 0.08802053 -0.012411196
000370 b4 16 ab 3b fd 26 02 3d 32 4e e8 3d 11 54 c2 3d
       0.0052212123 0.031775463 0.113430396 0.09488691
000380 ce e2 b0 3d 49 2a 55 3d e5 0f 5e bd e0 aa 78 bd
       0.086370096 0.05204228 -0.054214377 -0.060709834
000390 cc 24 c8 3d e3 f0 00 bd cc bf 89 bd 23 a1 94 3c
       0.097726434 -0.031479727 -0.067260355 0.018143242
0003a0 b1 7a 2c bd 8a 81 7e bd 59 d6 a0 3d ba e0 03 3e
       -0.042109195 -0.062135257 0.078533836 0.12878695
0003b0 a0 ff c0 3c cc ba f2 3c a6 d4 03 3e 6a ed 68 3d
       0.023559391 0.029630087 0.12874088 0.05686704
0003c0 71 bf 1f 3c 55 54 49 3d 1d b4 4a 3b 94 42 83 3c
       0.009750233 0.04915269 0.003093011 0.016022958
0003d0 2b d7 17 bd 4c 45 9b 3d d7 58 b3 3c bb 90 07 3d
       -0.037070435 0.07581577 0.021892948 0.03309701
0003e0 57 eb f7 3d 21 48 9e bd c7 ed 49 3c 13 a2 c5 3d
       0.121054344 -0.07728601 0.012324757 0.09650054
0003f0 28 fc 90 bd 52 de c4 3c c4 29 3d 3e 18 a3 f5 3d
       -0.07079345 0.024031792 0.18472964 0.11993998

lstm.bias_hh_l0 f4 [256]
000000 79 df 79 3c a2 0b 1a 3c 1f 6a 97 3d 51 14 0f bd
       0.015251034 0.009402188 0.07393288 -0.034931485
000010 f0 20 fb 3d ab 8f 28 3e b0 cf 9c bd 46 8e 97 bd
       0.12262142 0.16461055 -0.07656801 -0.074001834
000020 1e 39 62 3d 92 fb 79 bd 17 40 8b bb f8 f6 1f 3d
       0.055230252 -0.06103093 -0.0042495835 0.039053887
000030 aa cf 95 3d eb 4d 4e bd e6 43 89 bd 43 5a 7c bd
       0.073149994 -0.050367277 -0.06702404 -0.061609518
000040 f4 92 0e 3d 76 3f 28 3d f0 f6 bf 3c db ef 2c 3d
       0.034808114 0.041076146 0.023433179 0.04222093
000050 fb 5b 1a bc ce 06 86 3d 81 48 b2 3d 41 49 60 3d
       -0.009421344 0.06544267 0.08705235 0.05475736
000060 c8 16 0d bc 09 28 00 3e 83 22 81 3d ae 8f 1f 3e
       -0.0086113885 0.12515272 0.06305411 0.15582153
000070 32 2d c2 3b 78 c8 38 3b 46 4f 21 bd e6 f0 e0 3c
       0.005925798 0.002819566 -0.03938224 0.02745862
000080 e1 3f 6b bd 62 ed 6a bd 42 26 5e 3d d6 b1 1a 3e
       -0.057433967 -0.057355292 0.054235704 0.15106902
000090 ef f7 c4 bd 5c 95 57 3d 32 ce fe 3c 35 aa ee 3d
       -0.09617602 0.052632675 0.031104181 0.11653558
0000a0 05 07 8e 3d b6 f7 80 3d e8 33 a4 bb 66 8d 18 3e
       0.069349326 0.06297247 -0.0050110705 0.14897689
0000b0 43 0b 10 3d ea b7 60 3b 8f 3a de 3d d0 d7 b7 3d
       0.03516699 0.0034289309 0.10851013 0.0897671
0000c0 6a dd 59 3d cb 14 ed 3d 4b d7 09 3d 17 fc 77 bd
       0.053189673 0.115762316 0.033652585 -0.060543146
0000d0 49 62 e5 3d 0d 0b 98 3d ef e6 cb 3c 12 68 9a 3d
       0.11200387 0.07423983 0.024890391 0.07539381
0000e0 07 4c 43 3b 31 91 4b 3d e1 6d 1e 3e 49 06 ad 3d
       0.0029799955 0.049699012 0.15471603 0.084484644
0000f0 53 05 90 3d a2 96 07 3e 31 a7 17 3e eb b2 9d 3d
       0.070322655 0.13241056 0.14809872 0.077001415
000100 e0 08 68 3d fc 8f bd 3d 36 da c3 bd d0 c4 1d bd
       0.05664909 0.092559785 -0.09563105 -0.038517773
000110 44 79 70 bd 38 ff 89 bd d0 16 45 3c f6 19 c6 3d
       -0.058709398 -0.06738132 0.012029365 0.096729204
000120 1c 81 9f bd 5c 4c 1c bd c0 eb 9c 3d 9c b2 a0 bd
       -0.077882975 -0.03815876 0.07662153 -0.07846567
000130 1a 03 9a 3d b0 53 29 3d 54 f4 ce bd 98 fb ac bd
       0.07520123 0.041339576 -0.10105196 -0.08446425
000140 96 39 86 bd 16 91 97 bd d0 cf ee 3d b0 03 b1 3c
       -0.065539524 -0.0740072 0.11660731 0.021608204
000150 a0 7c 9a 3c 54 2d 9d bd 50 77 db 3c 76 95 8e 3d
       0.018858254 -0.07674661 0.026790291 0.06962101
000160 90 67 55 bd 70 8f 08 3d 4a 4e e0 3d c0 2b 06 bc
       -0.052100718 0.033339918 0.109524325 -0.008189142
000170 38 a9 88 bd e0 78 e8 bd 00 94 b9 bd fc 92 f5 bd
       -0.06672901 -0.1135118 -0.09061432 -0.11990926
000180 d0 6a 51 3c 18 40 93 bd cc 17 13 3d 60 69 4d bc
       0.012781814 -0.07189959 0.035911366 -0.01253733
000190 08 b9 47 3d 7c b8 eb 3d 80 3b fd ba b0 6c e5 3d
       0.048760444 0.11509797 -0.00193201 0.11202371
0001a0 b0 f8 9f bc d0 63 2e 3d 00 0b c1 bb 88 7d b7 bc
       -0.019527763 0.042575657 -0.005891204 -0.022398725
0001b0 04 a1 17 3d 44 e7 01 3d 90 02 32 bd 60 c9 f6 bc
       0.03701879 0.031714693 -0.043459475 -0.03012532
0001c0 80 f7 9b bb 54 30 97 3d 58 43 4c 3d 60 66 71 3d
       -0.004759729 0.07382265 0.04986891 0.058935523
0001d0 00 bc ce 3a 40 a6 8a 3b 64 36 f8 3d ac 62 92 3d
       0.0015772581 0.0042312443 0.12119749 0.071477264
0001e0 e0 c9 fc 3c b0 92 38 3c 48 7d ed bc d4 b4 4b 3d
       0.03085798 0.011265442 -0.028990403 0.049732998
0001f0 38 c9 45 3d 36 a4 80 3d ca 71 81 bd 60 75 07 bd
       0.0482876 0.06281321 -0.06320532 -0.033070922
000200 20 9f f7 bc 29 10 05 3e 4f 67 82 bd d9 30 02 3e
       -0.030227244 0.12994446 -0.06367361 0.12713946
000210 7a 74 6e 3d 86 1b a9 3d f4 c0 64 3d 02 30 d4 3d
       0.05821655 0.08257203 0.055848077 0.10360719
000220 79 8e 68 3d ce e5 c5 bd 2a f0 9c bd b5 52 e3 bd
       0.056776498 -0.096629724 -0.07662995 -0.110997595
000230 05 47 a3 3c 35 0b 27 be 41 a4 16 bd f4 b4 9b bd
       0.019931326 -0.16312869 -0.03677774 -0.076028734
000240 be ad 01 3e f8 39 b7 3d e5 24 d9 bd 22 e3 03 3e
       0.12663934 0.089466035 -0.1060274 0.12879613
000250 33 cd 8d bd a3 af 09 3e 68 bf 4b bd 87 09 1b be
       -0.06923904 0.13445906 -0.049743086 -0.15140353
000260 76 28 5c bb 00 f5 2b be 93 27 03 bd 5a c9 c6 bd
       -0.0033593453 -0.16792679 -0.032020163 -0.097063735
000270 18 42 4d 3c 87 cb 33 be 2b 17 ba 3d d4 7d 35 be
       0.012527965 -0.17558108 0.0908645 -0.17723781
000280 88 29 83 3d 7e 51 34 3e 24 c2 9a bd 90 60 63 bd
       0.06404406 0.17609212 -0.07556561 -0.05551201
000290 3a 72 c0 3d 63 9a d1 3b 92 79 27 be ff 94 fd bd
       0.09396787 0.006396578 -0.16354969 -0.123819344
0002a0 26 ae 12 3e 56 95 20 3e 7f d3 e5 3d c5 b2 af 3c
       0.14324245 0.15681967 0.1122198 0.021447549
0002b0 37 71 7c 3d ce cb ae bd 58 53 9f 3d 07 97 2f be
       0.061631408 -0.085349664 0.077795684 -0.17147456
0002c0 b0 eb fa bd b5 ef db bd 4d 74 3f 3d 11 23 9e bd
       -0.12251985 -0.1073908 0.046741772 -0.07721532
0002d0 d9 e0 a3 3c 56 85 47 bc 9c b7 df 3d 65 e1 75 3d
       0.020004677 -0.012177786 0.109236926 0.060029406
0002e0 15 ab 68 3d 3b c6 8f bd 3b a6 a5 bd 0c eb 90 3d
       0.05680378 -0.07020231 -0.080883466 0.07076082
0002f0 0b 0a 04 be 3d a8 03 3e 75 eb e2 3d 5e f0 df bd
       -0.12894456 0.12857147 0.11080066 -0.10934518
000300 28 50 6c bd 51 71 19 bd 0b 4b 3b bd de eb 63 bd
       -0.05769363 -0.037461583 -0.045725863 -0.055644862
000310 9f 2d fb bc 35 28 30 3e 74 89 45 3d 6d 0b 9c 3d
       -0.030661402 0.17202838 0.04822679 0.07619367
000320 b6 d1 6f bd cc 67 99 3d 2f 54 19 3d f2 cb 21 3d
       -0.058549605 0.07490501 0.0374338 0.039501138
000330 63 86 ee 3d 58 2d 00 3e 71 39 33 3e 64 e0 9a 3d
       0.11646726 0.12517297 0.17502381 0.0756233
000340 2f 97 4c 3c fb d2 af 3d 18 f6 5b bd 91 b8 2c 3e
       0.012487217 0.08585163 -0.05370149 0.16867281
000350 21 24 b5 3d 1d e6 cf bd 6a c8 81 bd 84 ce a4 bb
       0.08844782 -0.101513125 -0.06337054 -0.0050295014
000360 0e c2 7b 3c 27 12 1e 3e 84 86 c7 3c 1b 60 8a bc
       0.01536609 0.15436612 0.024356134 -0.01689153
000370 c0 7e 62 bc 02 89 da bb 76 13 3a 3e 96 d8 42 3d
       -0.013824165 -0.0066691646 0.18171486 0.047569834
000380 e0 6f 1d bd 2d 81 53 3d b4 15 10 3e a5 05 8e bb
       -0.03843677 0.051636863 0.14070779 -0.004334169
000390 04 67 93 3d 1b 4f ab 3d b8 dc c5 3d 4e d6 e6 3d
       0.07197383 0.083646975 0.096612394 0.11271344
0003a0 1b 27 20 bd 27 d6 24 3e f5 f7 5f 3c 8a 90 c5 bc
       -0.039099794 0.16097318 0.013669957 -0.024116773
0003b0 f5 53 03 3e 28 55 c8 3d fc eb 72 bd 58 1f 9b 3c
       0.12824996 0.09781867 -0.059307083 0.018935844
0003c0 73 f8 3a bd 96 d1 56 3c e5 82 83 3d 96 9d c0 bc
       -0.045647096 0.013111493 0.064214505 -0.023512643
0003d0 a1 a7 89 bd e1 6d 06 3e ec 88 0b 3e 66 9f ea 3c
       -0.06721426 0.13127853 0.1362645 0.02864046
0003e0 06 09 cf bc de ad 9b 3d 3b a6 8b 3c 04 5a f2 39
       -0.025272857 0.07601522 0.017047038 0.00046224904
0003f0 e0 50 f3 3d 6f cf 0e bd 79 e9 9c 3d 1c 5f 6f bd
       0.1188066 -0.034865793 0.07661719 -0.058440313

fc.0.weight f4 [125, 64]
000000 4f a2 f8 3d 93 0d 03 be 2f d7 97 bd 5e fe ef bd
       0.12140333 -0.12798147 -0.0741409 -0.117184386
000010 16 bf f8 bd f2 17 03 be 4a e3 08 be 70 8a f7 bd
       -0.12145822 -0.12802103 -0.13367954 -0.12086952
000020 21 80 13 be db 16 2b 3e 5d 06 78 3b 8a 58 3a bd
       -0.14404346 0.16707937 0.003784559 -0.045494594
000030 ee 8f cb bd 91 3a 1d 3e e4 61 0b be 89 e4 66 3d
       -0.09939562 0.15354373 -0.13611561 0.05637029
000040 9a 9a 9c bd b3 2b 29 be 40 ce 55 bd e5 d6 38 bd
       -0.076466754 -0.16520576 -0.05219865 -0.045126814
000050 81 37 98 bd 31 76 8a 3d 5e 67 5d bd 77 cc b4 3d
       -0.074324615 0.067608245 -0.054053657 0.08828061
000060 43 24 f0 bc 55 cd b7 3d 6e c4 79 bd 80 db 57 bd
       -0.029314166 0.08974711 -0.060978346 -0.052699566
000070 d6 b1 2b be 68 8d 00 3d 74 62 91 bd 14 e5 e3 3d
       -0.16767058 0.031384856 -0.070988566 0.111276776
000080 7b 79 15 bd 93 0b 9c 3c fc 25 0c 3b 70 35 8f bd
       -0.036492806 0.019048488 0.0021384945 -0.06992614
000090 0f c9 1e be 41 34 72 3d 42 fa d3 3d cb aa 2e bd
       -0.15506385 0.059131864 0.10350467 -0.04264335
0000a0 90 b2 d8 bd 9e 82 af bb 4b 9d 95 bc 3c c9 ea bc
       -0.10580933 -0.005356147 -0.01826348 -0.02866041
0000b0 e6 52 35 be 6d d6 af 3d e0 6c 32 be d5 54 25 3e
       -0.17707404 0.0858582 -0.17424345 0.16145642
0000c0 d2 28 f8 bc 8e 71 f7 bc 73 fc 75 3d 6f b3 c6 bc
       -0.030292902 -0.030205514 0.060055207 -0.024255482
0000d0 36 62 28 3d 0a 1e 1b 3e 72 2e fe bd 46 26 d7 bc
       0.041109286 0.15148178 -0.124112025 -0.026263367
0000e0 3b 88 9f bd 12 86 13 3e be 24 59 bd 6c 2e 1a 3d
       -0.07789656 0.14406613 -0.053013556 0.037641928
0000f0 67 d0 07 3e 74 c2 31 be 56 fb 24 be 0c f3 d6 3d
       0.13263093 -0.17359334 -0.16111502 0.10495576
000100 1d 57 8b 3d 5b ff 18 be a3 49 5c 3d 0a b3 5c bc
       0.06803725 -0.1494116 0.053781163 -0.013470421
000110 f1 11 4e bd 3c 85 31 bd 4c 62 3c bd 96 76 e5 bc
       -0.05031008 -0.043339953 -0.04599218 -0.028010648
000120 a0 05 80 bd 53 c8 5b 3d dc 51 e9 bc 9b 86 2d bd
       -0.06251073 0.05365784 -0.028481416 -0.042364698
000130 ad 1c 22 3c b2 73 b4 3d ad 42 9f bd e5 11 60 bc
       0.009894532 0.0881113 -0.07776389 -0.013676141
000140 6b 21 ca 3c b6 16 35 bd e9 6c 02 3e 61 ce 0a be
       0.024674138 -0.044211112 0.12736858 -0.1355529
000150 8a 90 da 3c 33 7a de bd 4b e6 34 be 8b 34 43 3b
       0.02668025 -0.108631514 -0.17665975 0.0029785957
000160 e9 31 13 be 1c d6 3f 3d 87 d4 58 bc 65 31 47 3d
       -0.14374508 0.04683505 -0.013234264 0.04863109
000170 6f 82 9c 3b 30 8e d5 39 e0 90 fd 3b 43 fc 77 bc
       0.004776291 0.00040732464 0.0077382177 -0.0151358275
000180 a6 8e 0b be 69 82 84 bc 88 d1 3a bd 3d fd 0a 3d
       -0.13628635 -0.016175466 -0.04560998 0.033932913
000190 b1 5e 3e 3d d4 28 4b 3d 4b 18 f2 3c 55 6b 35 3e
       0.046477024 0.049599484 0.0295526 0.17716725
0001a0 bb 6a c6 bd cb 7b b4 bd f8 c3 0e be a9 61 14 be
       -0.09688326 -0.08812674 -0.13941944 -0.1449038
0001b0 f9 b8 ea bd 2d 30 76 3d a3 7c 8c 3b ab 49 ac bb
       -0.11461062 0.060104538 0.004287319 -0.0052578053
0001c0 58 c6 d0 3d d9 a8 06 bc 32 33 24 bd 7e 3b 19 bd
       0.10194081 -0.008218967 -0.040087886 -0.03741025
0001d0 f2 3c 8b bd 11 31 2f 3d 67 33 eb bd f0 4c af bd
       -0.06798734 0.042771403 -0.114844136 -0.085595965
0001e0 2e 63 09 be 6a 23 9e 3c b1 e2 32 3e 8d 13 1b be
       -0.1341674 0.019303996 0.17469288 -0.15144177
0001f0 1d 78 cf 3d 65 26 d1 bd d7 d8 20 3b 63 ce 90 3d
       0.10130332 -0.10212401 0.002454331 0.07070615
000200 2f 45 77 3d 76 8b 77 bd 01 01 d1 3c c0 e2 87 bd
       0.060368713 -0.060435735 0.025513174 -0.06635046
000210 27 cf 2e 3d 1d de 31 be e1 29 72 3d b6 56 36 bb
       0.042678025 -0.17369886 0.05912197 -0.002782268
000220 a4 68 cb bd fa 70 a7 3c fe 36 0b 3d 47 c2 22 3e
       -0.09932068 0.020439614 0.03398799 0.15894423
000230 2f 70 2c bd ea 69 10 3e 47 7b 28 be 5e c5 e4 3d
       -0.042099174 0.14102903 -0.16453277 0.11170457
000240 41 5e 80 bd ed c5 bb bd b6 8a 25 bd 07 b2 21 bd
       -0.062679775 -0.09168611 -0.04041549 -0.03947642
000250 0c 59 d6 bd de 9b d6 bb 30 bd 05 be 3e 3c 0c bc
       -0.10466203 -0.0065493425 -0.1306045 -0.008559285
000260 34 2e 34 be 3e b8 3f bc fb 06 26 be ce 12 0d 3e
       -0.1759575 -0.011701642 -0.162136 0.13776705
000270 ac cb ba bb 92 e8 78 3d 91 ce 0d be be fe db 3d
       -0.005700549 0.06076867 -0.1384833 0.107419476
000280 99 32 58 bd ef 3a aa bd 0c b5 9e 3d 20 2c ca bc
       -0.05278263 -0.08312022 0.07749376 -0.024679244
000290 4e d5 d1 bd 9a 4a 05 3e 37 8d f7 3a 92 0e 9f 3d
       -0.10245763 0.1301674 0.001888669 0.07766451
0002a0 9c 6a 27 3c 0d 2b c0 bd 46 45 5a 3d ce da 99 bd
       0.010218289 -0.09383211 0.05328872 -0.07512437
0002b0 ec bd fc 3c 96 1d 1b 3e 13 19 19 be 7b 03 1d bd
       0.03085228 0.15148005 -0.14950971 -0.038333397
0002c0 c3 72 e4 3d 68 e6 e9 bb 69 ac 2a be 1e 53 00 be
       0.111547016 -0.0071380623 -0.16667332 -0.12531707
0002d0 81 5e b9 3b af 29 08 3e c4 6c a5 bc f4 2a 0d 3d
       0.0056570177 0.13297151 -0.020193465 0.03446479
0002e0 70 29 21 be 81 56 28 3e 7d 0a 5f bc 70 9e 1e 3d
       -0.15738463 0.16439249 -0.01361334 0.038725317
0002f0 5f b3 e0 3d 49 2d 2d 3d a5 b3 a0 bb 78 58 6c bc
       0.10971712 0.042279515 -0.004904228 -0.0144253895
000300 f1 d0 c9 bd 61 1c 7f 3d fc 31 0f 3d 95 ba bb 3d
       -0.098543055 0.062282924 0.03495978 0.09166447
000310 87 64 8c bc f9 f4 f8 3c 8a 84 86 bc 69 a3 25 3e
       -0.017137779 0.03039025 -0.016420621 0.16175617
000320 e4 bc 1e 3e f3 5b ca bd 7f a1 80 bd 00 be 88 3c
       0.15501744 -0.09880819 -0.06280803 0.016692162
000330 59 ad b3 3d c5 4f 1a be 2d 9a 34 3e 2d c0 18 be
       0.08773298 -0.15069492 0.17636938 -0.14917059
000340 e3 24 e7 3d 16 db 5c bd e3 1d a2 bd 5c 3b 70 bd
       0.112863325 -0.053919874 -0.07915857 -0.05865036
000350 c4 f2 1e 3d ef 6e 71 bd 21 7b 78 3d 23 30 a7 bb
       0.038805738 -0.058943685 0.0606643 -0.005102174
000360 49 8b 03 3d c9 4e 6f 3d b5 0b 7a 3d 77 7e 61 3c
       0.032115255 0.058424745 0.06104632 0.013763062
000370 cf 44 08 bd 55 59 3c 3c 4a da f7 3d 9b b3 a5 bd
       -0.033268746 0.011495908 0.12102182 -0.08090898
000380 6c 5f 16 3d ce c3 fe 3d 67 52 18 be f0 29 a6 bd
       0.036712095 0.124396905 -0.14875184 -0.08113468
000390 3b 74 69 3d 84 b3 35 be 51 c2 42 bd 1d 86 01 be
       0.05699561 -0.17744261 -0.047548596 -0.12648816
0003a0 1e 65 0f 3e d6 e8 f7 3d f5 09 05 3e 88 ac 17 bd
       0.14003417 0.12104957 0.1299208 -0.037029773
0003b0 5b ed 58 3c 49 9b 1c 3d da 9c 2b 3d d7 b6 36 be
       0.013240184 0.03823403 0.041897632 -0.17843185
0003c0 e8 2b b5 3b ee 12 b5 bd 37 ca d0 3d 25 56 0c bd
       0.0055289157 -0.08841501 0.101948194 -0.03426184
0003d0 b7 5f 48 3d 34 a4 87 3b 36 7e 36 3e c2 07 da 3d
       0.048919406 0.0041394476 0.17821583 0.10646011
0003e0 a9 b9 af 3d e9 7a 76 3c c8 b4 c2 bd 8a 78 4b 3d
       0.08580334 0.0150439525 -0.095071375 0.049675502
0003f0 f0 14 2d 3d f3 81 0a 3e 5d 68 a6 bc 82 8b 81 3d
       0.042256296 0.13526134 -0.020313436 0.06325437

fc.0.bias f4 [125]
000000 b9 c4 fb bd ea 23 52 bb 2c 57 23 bd be 59 15 3e
       -0.12293381 -0.0032064863 -0.039878055 0.14585015
000010 b2 2d 21 bd 3f 7b d2 bd 8c 1b 0e 3d eb 2e 71 3d
       -0.03935022 -0.102774136 0.03469424 0.058882635
000020 c9 b7 c7 3c 17 bc 91 bd a3 e1 e6 bd 4e 32 0c be
       0.024379628 -0.071159534 -0.112735055 -0.13691065
000030 b8 5b 32 3d b5 e8 d7 3d 6d 02 02 bc e4 bc b0 bd
       0.0435445 0.10542432 -0.007935149 -0.08629778
000040 fa 12 d4 bc 7d 89 08 be 92 d0 20 be a8 88 b4 3c
       -0.025887955 -0.13333698 -0.15704563 0.022037819
000050 ca 4d 43 bd 74 0d 02 ba 4f 96 60 bd 7f cf 04 be
       -0.047681607 -0.0004961111 -0.054830845 -0.12969778
000060 05 df 07 be ad 6c 14 3d 92 be 14 bd 33 29 8a 3d
       -0.13268669 0.036236454 -0.036314555 0.067461394
000070 82 79 d6 3b 50 1f de 3c ae 06 dd bd dc 4f 18 be
       0.0065452466 0.02711454 -0.1079229 -0.14874214
000080 4c 1a 29 bd 27 99 c0 bd 2d 80 13 be 48 47 75 bd
       -0.041284844 -0.094042115 -0.14404364 -0.059882432
000090 7a 06 17 3d 18 47 0f be 5c 52 b0 bd 76 74 31 bd
       0.03687141 -0.13991964 -0.08609459 -0.043323956
0000a0 25 e8 b3 3d 56 32 97 3d ea 1c 2c bc f7 4e 97 3c
       0.087845124 0.07382648 -0.0105049405 0.01847027
0000b0 b4 50 fc 3c 8d 3a a8 bd c9 aa 8f bd 3e a7 0f be
       0.030800201 -0.08214293 -0.070149966 -0.14028642
0000c0 fa c2 2f be e5 e9 a7 3b 4a f4 57 3b 26 7e 22 be
       -0.17164221 0.005124318 0.0032952004 -0.15868434
0000d0 40 a6 15 3d 0c c0 9c bd 68 ea 11 be 58 dd f0 bd
       0.0365355 -0.076538175 -0.14249575 -0.11760968
0000e0 ff 70 fd bc 25 50 b9 bd 0a cd 47 bd 65 4a f1 bd
       -0.03093767 -0.090484895 -0.048779525 -0.11781768
0000f0 c8 f7 b4 bd e1 d0 07 be f0 6e 25 be 13 e5 13 be
       -0.08836323 -0.13263275 -0.161556 -0.14442854
000100 7a b1 1c be 4e ad 0b bb 75 9c 01 bd 3e 9b a2 3d
       -0.15302077 -0.0021313014 -0.03164335 0.07939766
000110 f8 15 d0 3c 5f 4a 00 be 0e ee 20 be e1 5c 79 3d
       0.0254011 -0.1252837 -0.1571581 0.06087959
000120 ce 51 c6 3c 4e cf 8d 3c a0 ac 03 be 8d d4 d6 bd
       0.02420893 0.017310765 -0.1285882 -0.104897596
000130 47 4f 8f 3c 77 1e f7 bd 89 99 03 be e2 b0 db bc
       0.017493857 -0.120663576 -0.12851538 -0.026817743
000140 bb 72 2a be 12 2e 77 3d 77 e8 13 be 01 2c a5 bd
       -0.16645329 0.06034667 -0.14444147 -0.08065034
000150 94 dd 3c 3d 44 5e 4b bd 1f 81 16 be 78 6f a4 bd
       0.04610975 -0.049650446 -0.14697693 -0.080290735
000160 03 9a 41 3d 83 7b d8 bd 44 2e 9a 3b d9 1c 4b bc
       0.047266018 -0.10570433 0.0047052223 -0.012397015
000170 06 d1 10 3e 5c 12 22 bd 0c d4 03 bc 72 e0 0a 3d
       0.14142236 -0.03956829 -0.008046161 0.033905454
000180 9b 19 91 3d 03 69 17 be 84 f3 62 bd 39 a3 82 bd
       0.07084962 -0.14786153 -0.055408016 -0.063787885
000190 39 80 5d bd 48 3e 49 bd bd a4 be 3c ce b2 0e be
       -0.05407736 -0.04913166 0.023271913 -0.13935396
0001a0 50 9a 8c 3d cc 92 e1 bd a1 93 68 3d 5e 66 de bd
       0.0686537 -0.110143274 0.056781415 -0.10859369
0001b0 c2 94 9a 3c d3 10 95 bd f5 c3 d5 bc 3c b7 08 be
       0.018869761 -0.072785996 -0.026094416 -0.13351148
0001c0 1d 5d ef bc fd ea ed bd 12 82 e3 bb 9e e2 b5 3d
       -0.029219205 -0.11617086 -0.006942996 0.088811144
0001d0 8d 0e 90 3d 59 70 27 3e 01 f7 1a bd 49 88 06 3e
       0.07034025 0.16351451 -0.037833218 0.13137926
0001e0 49 39 eb bd 0f 9a a7 bb 6c 19 9f 3b 6b a8 2e be
       -0.11485536 -0.0051148008 0.0048553254 -0.17056434
0001f0 d1 55 6b bd
       -0.057454888
